node {
  name: "imgs_ph"
  op: "Placeholder"
  attr {
    key: "dtype"
    value {
      type: DT_FLOAT
    }
  }
  attr {
    key: "shape"
    value {
      shape {
        dim {
          size: 1
        }
        dim {
          size: 512
        }
        dim {
          size: 1024
        }
        dim {
          size: 3
        }
      }
    }
  }
}
node {
  name: "inital/W/Initializer/random_uniform/shape"
  op: "Const"
  attr {
    key: "_class"
    value {
      list {
        s: "loc:@inital/W"
      }
    }
  }
  attr {
    key: "dtype"
    value {
      type: DT_INT32
    }
  }
  attr {
    key: "value"
    value {
      tensor {
        dtype: DT_INT32
        tensor_shape {
          dim {
            size: 4
          }
        }
        tensor_content: "\003\000\000\000\003\000\000\000\003\000\000\000\r\000\000\000"
      }
    }
  }
}
node {
  name: "inital/W/Initializer/random_uniform/min"
  op: "Const"
  attr {
    key: "_class"
    value {
      list {
        s: "loc:@inital/W"
      }
    }
  }
  attr {
    key: "dtype"
    value {
      type: DT_FLOAT
    }
  }
  attr {
    key: "value"
    value {
      tensor {
        dtype: DT_FLOAT
        tensor_shape {
        }
        float_val: -0.20412415266036987
      }
    }
  }
}
node {
  name: "inital/W/Initializer/random_uniform/max"
  op: "Const"
  attr {
    key: "_class"
    value {
      list {
        s: "loc:@inital/W"
      }
    }
  }
  attr {
    key: "dtype"
    value {
      type: DT_FLOAT
    }
  }
  attr {
    key: "value"
    value {
      tensor {
        dtype: DT_FLOAT
        tensor_shape {
        }
        float_val: 0.20412415266036987
      }
    }
  }
}
node {
  name: "inital/W/Initializer/random_uniform/RandomUniform"
  op: "RandomUniform"
  input: "inital/W/Initializer/random_uniform/shape"
  attr {
    key: "T"
    value {
      type: DT_INT32
    }
  }
  attr {
    key: "_class"
    value {
      list {
        s: "loc:@inital/W"
      }
    }
  }
  attr {
    key: "dtype"
    value {
      type: DT_FLOAT
    }
  }
  attr {
    key: "seed"
    value {
      i: 0
    }
  }
  attr {
    key: "seed2"
    value {
      i: 0
    }
  }
}
node {
  name: "inital/W/Initializer/random_uniform/sub"
  op: "Sub"
  input: "inital/W/Initializer/random_uniform/max"
  input: "inital/W/Initializer/random_uniform/min"
  attr {
    key: "T"
    value {
      type: DT_FLOAT
    }
  }
  attr {
    key: "_class"
    value {
      list {
        s: "loc:@inital/W"
      }
    }
  }
}
node {
  name: "inital/W/Initializer/random_uniform/mul"
  op: "Mul"
  input: "inital/W/Initializer/random_uniform/RandomUniform"
  input: "inital/W/Initializer/random_uniform/sub"
  attr {
    key: "T"
    value {
      type: DT_FLOAT
    }
  }
  attr {
    key: "_class"
    value {
      list {
        s: "loc:@inital/W"
      }
    }
  }
}
node {
  name: "inital/W/Initializer/random_uniform"
  op: "Add"
  input: "inital/W/Initializer/random_uniform/mul"
  input: "inital/W/Initializer/random_uniform/min"
  attr {
    key: "T"
    value {
      type: DT_FLOAT
    }
  }
  attr {
    key: "_class"
    value {
      list {
        s: "loc:@inital/W"
      }
    }
  }
}
node {
  name: "inital/W"
  op: "VariableV2"
  attr {
    key: "_class"
    value {
      list {
        s: "loc:@inital/W"
      }
    }
  }
  attr {
    key: "container"
    value {
      s: ""
    }
  }
  attr {
    key: "dtype"
    value {
      type: DT_FLOAT
    }
  }
  attr {
    key: "shape"
    value {
      shape {
        dim {
          size: 3
        }
        dim {
          size: 3
        }
        dim {
          size: 3
        }
        dim {
          size: 13
        }
      }
    }
  }
  attr {
    key: "shared_name"
    value {
      s: ""
    }
  }
}
node {
  name: "inital/W/Assign"
  op: "Assign"
  input: "inital/W"
  input: "inital/W/Initializer/random_uniform"
  attr {
    key: "T"
    value {
      type: DT_FLOAT
    }
  }
  attr {
    key: "_class"
    value {
      list {
        s: "loc:@inital/W"
      }
    }
  }
  attr {
    key: "use_locking"
    value {
      b: true
    }
  }
  attr {
    key: "validate_shape"
    value {
      b: true
    }
  }
}
node {
  name: "inital/W/read"
  op: "Identity"
  input: "inital/W"
  attr {
    key: "T"
    value {
      type: DT_FLOAT
    }
  }
  attr {
    key: "_class"
    value {
      list {
        s: "loc:@inital/W"
      }
    }
  }
}
node {
  name: "L2Loss"
  op: "L2Loss"
  input: "inital/W/read"
  attr {
    key: "T"
    value {
      type: DT_FLOAT
    }
  }
}
node {
  name: "mul/x"
  op: "Const"
  attr {
    key: "dtype"
    value {
      type: DT_FLOAT
    }
  }
  attr {
    key: "value"
    value {
      tensor {
        dtype: DT_FLOAT
        tensor_shape {
        }
        float_val: 0.00019999999494757503
      }
    }
  }
}
node {
  name: "mul"
  op: "Mul"
  input: "mul/x"
  input: "L2Loss"
  attr {
    key: "T"
    value {
      type: DT_FLOAT
    }
  }
}
node {
  name: "inital/b/Initializer/Const"
  op: "Const"
  attr {
    key: "_class"
    value {
      list {
        s: "loc:@inital/b"
      }
    }
  }
  attr {
    key: "dtype"
    value {
      type: DT_FLOAT
    }
  }
  attr {
    key: "value"
    value {
      tensor {
        dtype: DT_FLOAT
        tensor_shape {
          dim {
            size: 13
          }
        }
        float_val: 0.0
      }
    }
  }
}
node {
  name: "inital/b"
  op: "VariableV2"
  attr {
    key: "_class"
    value {
      list {
        s: "loc:@inital/b"
      }
    }
  }
  attr {
    key: "container"
    value {
      s: ""
    }
  }
  attr {
    key: "dtype"
    value {
      type: DT_FLOAT
    }
  }
  attr {
    key: "shape"
    value {
      shape {
        dim {
          size: 13
        }
      }
    }
  }
  attr {
    key: "shared_name"
    value {
      s: ""
    }
  }
}
node {
  name: "inital/b/Assign"
  op: "Assign"
  input: "inital/b"
  input: "inital/b/Initializer/Const"
  attr {
    key: "T"
    value {
      type: DT_FLOAT
    }
  }
  attr {
    key: "_class"
    value {
      list {
        s: "loc:@inital/b"
      }
    }
  }
  attr {
    key: "use_locking"
    value {
      b: true
    }
  }
  attr {
    key: "validate_shape"
    value {
      b: true
    }
  }
}
node {
  name: "inital/b/read"
  op: "Identity"
  input: "inital/b"
  attr {
    key: "T"
    value {
      type: DT_FLOAT
    }
  }
  attr {
    key: "_class"
    value {
      list {
        s: "loc:@inital/b"
      }
    }
  }
}
node {
  name: "L2Loss_1"
  op: "L2Loss"
  input: "inital/b/read"
  attr {
    key: "T"
    value {
      type: DT_FLOAT
    }
  }
}
node {
  name: "mul_1/x"
  op: "Const"
  attr {
    key: "dtype"
    value {
      type: DT_FLOAT
    }
  }
  attr {
    key: "value"
    value {
      tensor {
        dtype: DT_FLOAT
        tensor_shape {
        }
        float_val: 0.00019999999494757503
      }
    }
  }
}
node {
  name: "mul_1"
  op: "Mul"
  input: "mul_1/x"
  input: "L2Loss_1"
  attr {
    key: "T"
    value {
      type: DT_FLOAT
    }
  }
}
node {
  name: "Conv2D"
  op: "Conv2D"
  input: "imgs_ph"
  input: "inital/W/read"
  attr {
    key: "T"
    value {
      type: DT_FLOAT
    }
  }
  attr {
    key: "data_format"
    value {
      s: "NHWC"
    }
  }
  attr {
    key: "dilations"
    value {
      list {
        i: 1
        i: 1
        i: 1
        i: 1
      }
    }
  }
  attr {
    key: "padding"
    value {
      s: "SAME"
    }
  }
  attr {
    key: "strides"
    value {
      list {
        i: 1
        i: 2
        i: 2
        i: 1
      }
    }
  }
  attr {
    key: "use_cudnn_on_gpu"
    value {
      b: true
    }
  }
}
node {
  name: "add"
  op: "Add"
  input: "Conv2D"
  input: "inital/b/read"
  attr {
    key: "T"
    value {
      type: DT_FLOAT
    }
  }
}
node {
  name: "MaxPool"
  op: "MaxPool"
  input: "imgs_ph"
  attr {
    key: "T"
    value {
      type: DT_FLOAT
    }
  }
  attr {
    key: "data_format"
    value {
      s: "NHWC"
    }
  }
  attr {
    key: "ksize"
    value {
      list {
        i: 1
        i: 2
        i: 2
        i: 1
      }
    }
  }
  attr {
    key: "padding"
    value {
      s: "VALID"
    }
  }
  attr {
    key: "strides"
    value {
      list {
        i: 1
        i: 2
        i: 2
        i: 1
      }
    }
  }
}
node {
  name: "concat/axis"
  op: "Const"
  attr {
    key: "dtype"
    value {
      type: DT_INT32
    }
  }
  attr {
    key: "value"
    value {
      tensor {
        dtype: DT_INT32
        tensor_shape {
        }
        int_val: 3
      }
    }
  }
}
node {
  name: "concat"
  op: "ConcatV2"
  input: "add"
  input: "MaxPool"
  input: "concat/axis"
  attr {
    key: "N"
    value {
      i: 2
    }
  }
  attr {
    key: "T"
    value {
      type: DT_FLOAT
    }
  }
  attr {
    key: "Tidx"
    value {
      type: DT_INT32
    }
  }
}
node {
  name: "BatchNorm/Const"
  op: "Const"
  attr {
    key: "dtype"
    value {
      type: DT_FLOAT
    }
  }
  attr {
    key: "value"
    value {
      tensor {
        dtype: DT_FLOAT
        tensor_shape {
          dim {
            size: 16
          }
        }
        float_val: 1.0
      }
    }
  }
}
node {
  name: "BatchNorm/beta/Initializer/zeros"
  op: "Const"
  attr {
    key: "_class"
    value {
      list {
        s: "loc:@BatchNorm/beta"
      }
    }
  }
  attr {
    key: "dtype"
    value {
      type: DT_FLOAT
    }
  }
  attr {
    key: "value"
    value {
      tensor {
        dtype: DT_FLOAT
        tensor_shape {
          dim {
            size: 16
          }
        }
        float_val: 0.0
      }
    }
  }
}
node {
  name: "BatchNorm/beta"
  op: "VariableV2"
  attr {
    key: "_class"
    value {
      list {
        s: "loc:@BatchNorm/beta"
      }
    }
  }
  attr {
    key: "container"
    value {
      s: ""
    }
  }
  attr {
    key: "dtype"
    value {
      type: DT_FLOAT
    }
  }
  attr {
    key: "shape"
    value {
      shape {
        dim {
          size: 16
        }
      }
    }
  }
  attr {
    key: "shared_name"
    value {
      s: ""
    }
  }
}
node {
  name: "BatchNorm/beta/Assign"
  op: "Assign"
  input: "BatchNorm/beta"
  input: "BatchNorm/beta/Initializer/zeros"
  attr {
    key: "T"
    value {
      type: DT_FLOAT
    }
  }
  attr {
    key: "_class"
    value {
      list {
        s: "loc:@BatchNorm/beta"
      }
    }
  }
  attr {
    key: "use_locking"
    value {
      b: true
    }
  }
  attr {
    key: "validate_shape"
    value {
      b: true
    }
  }
}
node {
  name: "BatchNorm/beta/read"
  op: "Identity"
  input: "BatchNorm/beta"
  attr {
    key: "T"
    value {
      type: DT_FLOAT
    }
  }
  attr {
    key: "_class"
    value {
      list {
        s: "loc:@BatchNorm/beta"
      }
    }
  }
}
node {
  name: "BatchNorm/moving_mean/Initializer/zeros"
  op: "Const"
  attr {
    key: "_class"
    value {
      list {
        s: "loc:@BatchNorm/moving_mean"
      }
    }
  }
  attr {
    key: "dtype"
    value {
      type: DT_FLOAT
    }
  }
  attr {
    key: "value"
    value {
      tensor {
        dtype: DT_FLOAT
        tensor_shape {
          dim {
            size: 16
          }
        }
        float_val: 0.0
      }
    }
  }
}
node {
  name: "BatchNorm/moving_mean"
  op: "VariableV2"
  attr {
    key: "_class"
    value {
      list {
        s: "loc:@BatchNorm/moving_mean"
      }
    }
  }
  attr {
    key: "container"
    value {
      s: ""
    }
  }
  attr {
    key: "dtype"
    value {
      type: DT_FLOAT
    }
  }
  attr {
    key: "shape"
    value {
      shape {
        dim {
          size: 16
        }
      }
    }
  }
  attr {
    key: "shared_name"
    value {
      s: ""
    }
  }
}
node {
  name: "BatchNorm/moving_mean/Assign"
  op: "Assign"
  input: "BatchNorm/moving_mean"
  input: "BatchNorm/moving_mean/Initializer/zeros"
  attr {
    key: "T"
    value {
      type: DT_FLOAT
    }
  }
  attr {
    key: "_class"
    value {
      list {
        s: "loc:@BatchNorm/moving_mean"
      }
    }
  }
  attr {
    key: "use_locking"
    value {
      b: true
    }
  }
  attr {
    key: "validate_shape"
    value {
      b: true
    }
  }
}
node {
  name: "BatchNorm/moving_mean/read"
  op: "Identity"
  input: "BatchNorm/moving_mean"
  attr {
    key: "T"
    value {
      type: DT_FLOAT
    }
  }
  attr {
    key: "_class"
    value {
      list {
        s: "loc:@BatchNorm/moving_mean"
      }
    }
  }
}
node {
  name: "BatchNorm/moving_variance/Initializer/ones"
  op: "Const"
  attr {
    key: "_class"
    value {
      list {
        s: "loc:@BatchNorm/moving_variance"
      }
    }
  }
  attr {
    key: "dtype"
    value {
      type: DT_FLOAT
    }
  }
  attr {
    key: "value"
    value {
      tensor {
        dtype: DT_FLOAT
        tensor_shape {
          dim {
            size: 16
          }
        }
        float_val: 1.0
      }
    }
  }
}
node {
  name: "BatchNorm/moving_variance"
  op: "VariableV2"
  attr {
    key: "_class"
    value {
      list {
        s: "loc:@BatchNorm/moving_variance"
      }
    }
  }
  attr {
    key: "container"
    value {
      s: ""
    }
  }
  attr {
    key: "dtype"
    value {
      type: DT_FLOAT
    }
  }
  attr {
    key: "shape"
    value {
      shape {
        dim {
          size: 16
        }
      }
    }
  }
  attr {
    key: "shared_name"
    value {
      s: ""
    }
  }
}
node {
  name: "BatchNorm/moving_variance/Assign"
  op: "Assign"
  input: "BatchNorm/moving_variance"
  input: "BatchNorm/moving_variance/Initializer/ones"
  attr {
    key: "T"
    value {
      type: DT_FLOAT
    }
  }
  attr {
    key: "_class"
    value {
      list {
        s: "loc:@BatchNorm/moving_variance"
      }
    }
  }
  attr {
    key: "use_locking"
    value {
      b: true
    }
  }
  attr {
    key: "validate_shape"
    value {
      b: true
    }
  }
}
node {
  name: "BatchNorm/moving_variance/read"
  op: "Identity"
  input: "BatchNorm/moving_variance"
  attr {
    key: "T"
    value {
      type: DT_FLOAT
    }
  }
  attr {
    key: "_class"
    value {
      list {
        s: "loc:@BatchNorm/moving_variance"
      }
    }
  }
}
node {
  name: "BatchNorm/Const_1"
  op: "Const"
  attr {
    key: "dtype"
    value {
      type: DT_FLOAT
    }
  }
  attr {
    key: "value"
    value {
      tensor {
        dtype: DT_FLOAT
        tensor_shape {
          dim {
          }
        }
      }
    }
  }
}
node {
  name: "BatchNorm/Const_2"
  op: "Const"
  attr {
    key: "dtype"
    value {
      type: DT_FLOAT
    }
  }
  attr {
    key: "value"
    value {
      tensor {
        dtype: DT_FLOAT
        tensor_shape {
          dim {
          }
        }
      }
    }
  }
}
node {
  name: "BatchNorm/FusedBatchNorm"
  op: "FusedBatchNorm"
  input: "concat"
  input: "BatchNorm/Const"
  input: "BatchNorm/beta/read"
  input: "BatchNorm/Const_1"
  input: "BatchNorm/Const_2"
  attr {
    key: "T"
    value {
      type: DT_FLOAT
    }
  }
  attr {
    key: "data_format"
    value {
      s: "NHWC"
    }
  }
  attr {
    key: "epsilon"
    value {
      f: 0.0010000000474974513
    }
  }
  attr {
    key: "is_training"
    value {
      b: true
    }
  }
}
node {
  name: "BatchNorm/Const_3"
  op: "Const"
  attr {
    key: "dtype"
    value {
      type: DT_FLOAT
    }
  }
  attr {
    key: "value"
    value {
      tensor {
        dtype: DT_FLOAT
        tensor_shape {
        }
        float_val: 0.9990000128746033
      }
    }
  }
}
node {
  name: "BatchNorm/AssignMovingAvg/sub/x"
  op: "Const"
  attr {
    key: "_class"
    value {
      list {
        s: "loc:@BatchNorm/moving_mean"
      }
    }
  }
  attr {
    key: "dtype"
    value {
      type: DT_FLOAT
    }
  }
  attr {
    key: "value"
    value {
      tensor {
        dtype: DT_FLOAT
        tensor_shape {
        }
        float_val: 1.0
      }
    }
  }
}
node {
  name: "BatchNorm/AssignMovingAvg/sub"
  op: "Sub"
  input: "BatchNorm/AssignMovingAvg/sub/x"
  input: "BatchNorm/Const_3"
  attr {
    key: "T"
    value {
      type: DT_FLOAT
    }
  }
  attr {
    key: "_class"
    value {
      list {
        s: "loc:@BatchNorm/moving_mean"
      }
    }
  }
}
node {
  name: "BatchNorm/AssignMovingAvg/sub_1"
  op: "Sub"
  input: "BatchNorm/moving_mean/read"
  input: "BatchNorm/FusedBatchNorm:1"
  attr {
    key: "T"
    value {
      type: DT_FLOAT
    }
  }
  attr {
    key: "_class"
    value {
      list {
        s: "loc:@BatchNorm/moving_mean"
      }
    }
  }
}
node {
  name: "BatchNorm/AssignMovingAvg/mul"
  op: "Mul"
  input: "BatchNorm/AssignMovingAvg/sub_1"
  input: "BatchNorm/AssignMovingAvg/sub"
  attr {
    key: "T"
    value {
      type: DT_FLOAT
    }
  }
  attr {
    key: "_class"
    value {
      list {
        s: "loc:@BatchNorm/moving_mean"
      }
    }
  }
}
node {
  name: "BatchNorm/AssignMovingAvg"
  op: "AssignSub"
  input: "BatchNorm/moving_mean"
  input: "BatchNorm/AssignMovingAvg/mul"
  attr {
    key: "T"
    value {
      type: DT_FLOAT
    }
  }
  attr {
    key: "_class"
    value {
      list {
        s: "loc:@BatchNorm/moving_mean"
      }
    }
  }
  attr {
    key: "use_locking"
    value {
      b: false
    }
  }
}
node {
  name: "BatchNorm/AssignMovingAvg_1/sub/x"
  op: "Const"
  attr {
    key: "_class"
    value {
      list {
        s: "loc:@BatchNorm/moving_variance"
      }
    }
  }
  attr {
    key: "dtype"
    value {
      type: DT_FLOAT
    }
  }
  attr {
    key: "value"
    value {
      tensor {
        dtype: DT_FLOAT
        tensor_shape {
        }
        float_val: 1.0
      }
    }
  }
}
node {
  name: "BatchNorm/AssignMovingAvg_1/sub"
  op: "Sub"
  input: "BatchNorm/AssignMovingAvg_1/sub/x"
  input: "BatchNorm/Const_3"
  attr {
    key: "T"
    value {
      type: DT_FLOAT
    }
  }
  attr {
    key: "_class"
    value {
      list {
        s: "loc:@BatchNorm/moving_variance"
      }
    }
  }
}
node {
  name: "BatchNorm/AssignMovingAvg_1/sub_1"
  op: "Sub"
  input: "BatchNorm/moving_variance/read"
  input: "BatchNorm/FusedBatchNorm:2"
  attr {
    key: "T"
    value {
      type: DT_FLOAT
    }
  }
  attr {
    key: "_class"
    value {
      list {
        s: "loc:@BatchNorm/moving_variance"
      }
    }
  }
}
node {
  name: "BatchNorm/AssignMovingAvg_1/mul"
  op: "Mul"
  input: "BatchNorm/AssignMovingAvg_1/sub_1"
  input: "BatchNorm/AssignMovingAvg_1/sub"
  attr {
    key: "T"
    value {
      type: DT_FLOAT
    }
  }
  attr {
    key: "_class"
    value {
      list {
        s: "loc:@BatchNorm/moving_variance"
      }
    }
  }
}
node {
  name: "BatchNorm/AssignMovingAvg_1"
  op: "AssignSub"
  input: "BatchNorm/moving_variance"
  input: "BatchNorm/AssignMovingAvg_1/mul"
  attr {
    key: "T"
    value {
      type: DT_FLOAT
    }
  }
  attr {
    key: "_class"
    value {
      list {
        s: "loc:@BatchNorm/moving_variance"
      }
    }
  }
  attr {
    key: "use_locking"
    value {
      b: false
    }
  }
}
node {
  name: "inital/alpha/Initializer/Const"
  op: "Const"
  attr {
    key: "_class"
    value {
      list {
        s: "loc:@inital/alpha"
      }
    }
  }
  attr {
    key: "dtype"
    value {
      type: DT_FLOAT
    }
  }
  attr {
    key: "value"
    value {
      tensor {
        dtype: DT_FLOAT
        tensor_shape {
          dim {
            size: 1
          }
        }
        float_val: 0.0
      }
    }
  }
}
node {
  name: "inital/alpha"
  op: "VariableV2"
  attr {
    key: "_class"
    value {
      list {
        s: "loc:@inital/alpha"
      }
    }
  }
  attr {
    key: "container"
    value {
      s: ""
    }
  }
  attr {
    key: "dtype"
    value {
      type: DT_FLOAT
    }
  }
  attr {
    key: "shape"
    value {
      shape {
        dim {
          size: 1
        }
      }
    }
  }
  attr {
    key: "shared_name"
    value {
      s: ""
    }
  }
}
node {
  name: "inital/alpha/Assign"
  op: "Assign"
  input: "inital/alpha"
  input: "inital/alpha/Initializer/Const"
  attr {
    key: "T"
    value {
      type: DT_FLOAT
    }
  }
  attr {
    key: "_class"
    value {
      list {
        s: "loc:@inital/alpha"
      }
    }
  }
  attr {
    key: "use_locking"
    value {
      b: true
    }
  }
  attr {
    key: "validate_shape"
    value {
      b: true
    }
  }
}
node {
  name: "inital/alpha/read"
  op: "Identity"
  input: "inital/alpha"
  attr {
    key: "T"
    value {
      type: DT_FLOAT
    }
  }
  attr {
    key: "_class"
    value {
      list {
        s: "loc:@inital/alpha"
      }
    }
  }
}
node {
  name: "Relu"
  op: "Relu"
  input: "BatchNorm/FusedBatchNorm"
  attr {
    key: "T"
    value {
      type: DT_FLOAT
    }
  }
}
node {
  name: "Abs"
  op: "Abs"
  input: "BatchNorm/FusedBatchNorm"
  attr {
    key: "T"
    value {
      type: DT_FLOAT
    }
  }
}
node {
  name: "sub"
  op: "Sub"
  input: "BatchNorm/FusedBatchNorm"
  input: "Abs"
  attr {
    key: "T"
    value {
      type: DT_FLOAT
    }
  }
}
node {
  name: "mul_2"
  op: "Mul"
  input: "inital/alpha/read"
  input: "sub"
  attr {
    key: "T"
    value {
      type: DT_FLOAT
    }
  }
}
node {
  name: "mul_3/y"
  op: "Const"
  attr {
    key: "dtype"
    value {
      type: DT_FLOAT
    }
  }
  attr {
    key: "value"
    value {
      tensor {
        dtype: DT_FLOAT
        tensor_shape {
        }
        float_val: 0.5
      }
    }
  }
}
node {
  name: "mul_3"
  op: "Mul"
  input: "mul_2"
  input: "mul_3/y"
  attr {
    key: "T"
    value {
      type: DT_FLOAT
    }
  }
}
node {
  name: "add_1"
  op: "Add"
  input: "Relu"
  input: "mul_3"
  attr {
    key: "T"
    value {
      type: DT_FLOAT
    }
  }
}
node {
  name: "bottleneck_1_0/W_proj/Initializer/random_uniform/shape"
  op: "Const"
  attr {
    key: "_class"
    value {
      list {
        s: "loc:@bottleneck_1_0/W_proj"
      }
    }
  }
  attr {
    key: "dtype"
    value {
      type: DT_INT32
    }
  }
  attr {
    key: "value"
    value {
      tensor {
        dtype: DT_INT32
        tensor_shape {
          dim {
            size: 4
          }
        }
        tensor_content: "\002\000\000\000\002\000\000\000\020\000\000\000\020\000\000\000"
      }
    }
  }
}
node {
  name: "bottleneck_1_0/W_proj/Initializer/random_uniform/min"
  op: "Const"
  attr {
    key: "_class"
    value {
      list {
        s: "loc:@bottleneck_1_0/W_proj"
      }
    }
  }
  attr {
    key: "dtype"
    value {
      type: DT_FLOAT
    }
  }
  attr {
    key: "value"
    value {
      tensor {
        dtype: DT_FLOAT
        tensor_shape {
        }
        float_val: -0.21650634706020355
      }
    }
  }
}
node {
  name: "bottleneck_1_0/W_proj/Initializer/random_uniform/max"
  op: "Const"
  attr {
    key: "_class"
    value {
      list {
        s: "loc:@bottleneck_1_0/W_proj"
      }
    }
  }
  attr {
    key: "dtype"
    value {
      type: DT_FLOAT
    }
  }
  attr {
    key: "value"
    value {
      tensor {
        dtype: DT_FLOAT
        tensor_shape {
        }
        float_val: 0.21650634706020355
      }
    }
  }
}
node {
  name: "bottleneck_1_0/W_proj/Initializer/random_uniform/RandomUniform"
  op: "RandomUniform"
  input: "bottleneck_1_0/W_proj/Initializer/random_uniform/shape"
  attr {
    key: "T"
    value {
      type: DT_INT32
    }
  }
  attr {
    key: "_class"
    value {
      list {
        s: "loc:@bottleneck_1_0/W_proj"
      }
    }
  }
  attr {
    key: "dtype"
    value {
      type: DT_FLOAT
    }
  }
  attr {
    key: "seed"
    value {
      i: 0
    }
  }
  attr {
    key: "seed2"
    value {
      i: 0
    }
  }
}
node {
  name: "bottleneck_1_0/W_proj/Initializer/random_uniform/sub"
  op: "Sub"
  input: "bottleneck_1_0/W_proj/Initializer/random_uniform/max"
  input: "bottleneck_1_0/W_proj/Initializer/random_uniform/min"
  attr {
    key: "T"
    value {
      type: DT_FLOAT
    }
  }
  attr {
    key: "_class"
    value {
      list {
        s: "loc:@bottleneck_1_0/W_proj"
      }
    }
  }
}
node {
  name: "bottleneck_1_0/W_proj/Initializer/random_uniform/mul"
  op: "Mul"
  input: "bottleneck_1_0/W_proj/Initializer/random_uniform/RandomUniform"
  input: "bottleneck_1_0/W_proj/Initializer/random_uniform/sub"
  attr {
    key: "T"
    value {
      type: DT_FLOAT
    }
  }
  attr {
    key: "_class"
    value {
      list {
        s: "loc:@bottleneck_1_0/W_proj"
      }
    }
  }
}
node {
  name: "bottleneck_1_0/W_proj/Initializer/random_uniform"
  op: "Add"
  input: "bottleneck_1_0/W_proj/Initializer/random_uniform/mul"
  input: "bottleneck_1_0/W_proj/Initializer/random_uniform/min"
  attr {
    key: "T"
    value {
      type: DT_FLOAT
    }
  }
  attr {
    key: "_class"
    value {
      list {
        s: "loc:@bottleneck_1_0/W_proj"
      }
    }
  }
}
node {
  name: "bottleneck_1_0/W_proj"
  op: "VariableV2"
  attr {
    key: "_class"
    value {
      list {
        s: "loc:@bottleneck_1_0/W_proj"
      }
    }
  }
  attr {
    key: "container"
    value {
      s: ""
    }
  }
  attr {
    key: "dtype"
    value {
      type: DT_FLOAT
    }
  }
  attr {
    key: "shape"
    value {
      shape {
        dim {
          size: 2
        }
        dim {
          size: 2
        }
        dim {
          size: 16
        }
        dim {
          size: 16
        }
      }
    }
  }
  attr {
    key: "shared_name"
    value {
      s: ""
    }
  }
}
node {
  name: "bottleneck_1_0/W_proj/Assign"
  op: "Assign"
  input: "bottleneck_1_0/W_proj"
  input: "bottleneck_1_0/W_proj/Initializer/random_uniform"
  attr {
    key: "T"
    value {
      type: DT_FLOAT
    }
  }
  attr {
    key: "_class"
    value {
      list {
        s: "loc:@bottleneck_1_0/W_proj"
      }
    }
  }
  attr {
    key: "use_locking"
    value {
      b: true
    }
  }
  attr {
    key: "validate_shape"
    value {
      b: true
    }
  }
}
node {
  name: "bottleneck_1_0/W_proj/read"
  op: "Identity"
  input: "bottleneck_1_0/W_proj"
  attr {
    key: "T"
    value {
      type: DT_FLOAT
    }
  }
  attr {
    key: "_class"
    value {
      list {
        s: "loc:@bottleneck_1_0/W_proj"
      }
    }
  }
}
node {
  name: "L2Loss_2"
  op: "L2Loss"
  input: "bottleneck_1_0/W_proj/read"
  attr {
    key: "T"
    value {
      type: DT_FLOAT
    }
  }
}
node {
  name: "mul_4/x"
  op: "Const"
  attr {
    key: "dtype"
    value {
      type: DT_FLOAT
    }
  }
  attr {
    key: "value"
    value {
      tensor {
        dtype: DT_FLOAT
        tensor_shape {
        }
        float_val: 0.00019999999494757503
      }
    }
  }
}
node {
  name: "mul_4"
  op: "Mul"
  input: "mul_4/x"
  input: "L2Loss_2"
  attr {
    key: "T"
    value {
      type: DT_FLOAT
    }
  }
}
node {
  name: "Conv2D_1"
  op: "Conv2D"
  input: "add_1"
  input: "bottleneck_1_0/W_proj/read"
  attr {
    key: "T"
    value {
      type: DT_FLOAT
    }
  }
  attr {
    key: "data_format"
    value {
      s: "NHWC"
    }
  }
  attr {
    key: "dilations"
    value {
      list {
        i: 1
        i: 1
        i: 1
        i: 1
      }
    }
  }
  attr {
    key: "padding"
    value {
      s: "VALID"
    }
  }
  attr {
    key: "strides"
    value {
      list {
        i: 1
        i: 2
        i: 2
        i: 1
      }
    }
  }
  attr {
    key: "use_cudnn_on_gpu"
    value {
      b: true
    }
  }
}
node {
  name: "BatchNorm_1/Const"
  op: "Const"
  attr {
    key: "dtype"
    value {
      type: DT_FLOAT
    }
  }
  attr {
    key: "value"
    value {
      tensor {
        dtype: DT_FLOAT
        tensor_shape {
          dim {
            size: 16
          }
        }
        float_val: 1.0
      }
    }
  }
}
node {
  name: "BatchNorm_1/beta/Initializer/zeros"
  op: "Const"
  attr {
    key: "_class"
    value {
      list {
        s: "loc:@BatchNorm_1/beta"
      }
    }
  }
  attr {
    key: "dtype"
    value {
      type: DT_FLOAT
    }
  }
  attr {
    key: "value"
    value {
      tensor {
        dtype: DT_FLOAT
        tensor_shape {
          dim {
            size: 16
          }
        }
        float_val: 0.0
      }
    }
  }
}
node {
  name: "BatchNorm_1/beta"
  op: "VariableV2"
  attr {
    key: "_class"
    value {
      list {
        s: "loc:@BatchNorm_1/beta"
      }
    }
  }
  attr {
    key: "container"
    value {
      s: ""
    }
  }
  attr {
    key: "dtype"
    value {
      type: DT_FLOAT
    }
  }
  attr {
    key: "shape"
    value {
      shape {
        dim {
          size: 16
        }
      }
    }
  }
  attr {
    key: "shared_name"
    value {
      s: ""
    }
  }
}
node {
  name: "BatchNorm_1/beta/Assign"
  op: "Assign"
  input: "BatchNorm_1/beta"
  input: "BatchNorm_1/beta/Initializer/zeros"
  attr {
    key: "T"
    value {
      type: DT_FLOAT
    }
  }
  attr {
    key: "_class"
    value {
      list {
        s: "loc:@BatchNorm_1/beta"
      }
    }
  }
  attr {
    key: "use_locking"
    value {
      b: true
    }
  }
  attr {
    key: "validate_shape"
    value {
      b: true
    }
  }
}
node {
  name: "BatchNorm_1/beta/read"
  op: "Identity"
  input: "BatchNorm_1/beta"
  attr {
    key: "T"
    value {
      type: DT_FLOAT
    }
  }
  attr {
    key: "_class"
    value {
      list {
        s: "loc:@BatchNorm_1/beta"
      }
    }
  }
}
node {
  name: "BatchNorm_1/moving_mean/Initializer/zeros"
  op: "Const"
  attr {
    key: "_class"
    value {
      list {
        s: "loc:@BatchNorm_1/moving_mean"
      }
    }
  }
  attr {
    key: "dtype"
    value {
      type: DT_FLOAT
    }
  }
  attr {
    key: "value"
    value {
      tensor {
        dtype: DT_FLOAT
        tensor_shape {
          dim {
            size: 16
          }
        }
        float_val: 0.0
      }
    }
  }
}
node {
  name: "BatchNorm_1/moving_mean"
  op: "VariableV2"
  attr {
    key: "_class"
    value {
      list {
        s: "loc:@BatchNorm_1/moving_mean"
      }
    }
  }
  attr {
    key: "container"
    value {
      s: ""
    }
  }
  attr {
    key: "dtype"
    value {
      type: DT_FLOAT
    }
  }
  attr {
    key: "shape"
    value {
      shape {
        dim {
          size: 16
        }
      }
    }
  }
  attr {
    key: "shared_name"
    value {
      s: ""
    }
  }
}
node {
  name: "BatchNorm_1/moving_mean/Assign"
  op: "Assign"
  input: "BatchNorm_1/moving_mean"
  input: "BatchNorm_1/moving_mean/Initializer/zeros"
  attr {
    key: "T"
    value {
      type: DT_FLOAT
    }
  }
  attr {
    key: "_class"
    value {
      list {
        s: "loc:@BatchNorm_1/moving_mean"
      }
    }
  }
  attr {
    key: "use_locking"
    value {
      b: true
    }
  }
  attr {
    key: "validate_shape"
    value {
      b: true
    }
  }
}
node {
  name: "BatchNorm_1/moving_mean/read"
  op: "Identity"
  input: "BatchNorm_1/moving_mean"
  attr {
    key: "T"
    value {
      type: DT_FLOAT
    }
  }
  attr {
    key: "_class"
    value {
      list {
        s: "loc:@BatchNorm_1/moving_mean"
      }
    }
  }
}
node {
  name: "BatchNorm_1/moving_variance/Initializer/ones"
  op: "Const"
  attr {
    key: "_class"
    value {
      list {
        s: "loc:@BatchNorm_1/moving_variance"
      }
    }
  }
  attr {
    key: "dtype"
    value {
      type: DT_FLOAT
    }
  }
  attr {
    key: "value"
    value {
      tensor {
        dtype: DT_FLOAT
        tensor_shape {
          dim {
            size: 16
          }
        }
        float_val: 1.0
      }
    }
  }
}
node {
  name: "BatchNorm_1/moving_variance"
  op: "VariableV2"
  attr {
    key: "_class"
    value {
      list {
        s: "loc:@BatchNorm_1/moving_variance"
      }
    }
  }
  attr {
    key: "container"
    value {
      s: ""
    }
  }
  attr {
    key: "dtype"
    value {
      type: DT_FLOAT
    }
  }
  attr {
    key: "shape"
    value {
      shape {
        dim {
          size: 16
        }
      }
    }
  }
  attr {
    key: "shared_name"
    value {
      s: ""
    }
  }
}
node {
  name: "BatchNorm_1/moving_variance/Assign"
  op: "Assign"
  input: "BatchNorm_1/moving_variance"
  input: "BatchNorm_1/moving_variance/Initializer/ones"
  attr {
    key: "T"
    value {
      type: DT_FLOAT
    }
  }
  attr {
    key: "_class"
    value {
      list {
        s: "loc:@BatchNorm_1/moving_variance"
      }
    }
  }
  attr {
    key: "use_locking"
    value {
      b: true
    }
  }
  attr {
    key: "validate_shape"
    value {
      b: true
    }
  }
}
node {
  name: "BatchNorm_1/moving_variance/read"
  op: "Identity"
  input: "BatchNorm_1/moving_variance"
  attr {
    key: "T"
    value {
      type: DT_FLOAT
    }
  }
  attr {
    key: "_class"
    value {
      list {
        s: "loc:@BatchNorm_1/moving_variance"
      }
    }
  }
}
node {
  name: "BatchNorm_1/Const_1"
  op: "Const"
  attr {
    key: "dtype"
    value {
      type: DT_FLOAT
    }
  }
  attr {
    key: "value"
    value {
      tensor {
        dtype: DT_FLOAT
        tensor_shape {
          dim {
          }
        }
      }
    }
  }
}
node {
  name: "BatchNorm_1/Const_2"
  op: "Const"
  attr {
    key: "dtype"
    value {
      type: DT_FLOAT
    }
  }
  attr {
    key: "value"
    value {
      tensor {
        dtype: DT_FLOAT
        tensor_shape {
          dim {
          }
        }
      }
    }
  }
}
node {
  name: "BatchNorm_1/FusedBatchNorm"
  op: "FusedBatchNorm"
  input: "Conv2D_1"
  input: "BatchNorm_1/Const"
  input: "BatchNorm_1/beta/read"
  input: "BatchNorm_1/Const_1"
  input: "BatchNorm_1/Const_2"
  attr {
    key: "T"
    value {
      type: DT_FLOAT
    }
  }
  attr {
    key: "data_format"
    value {
      s: "NHWC"
    }
  }
  attr {
    key: "epsilon"
    value {
      f: 0.0010000000474974513
    }
  }
  attr {
    key: "is_training"
    value {
      b: true
    }
  }
}
node {
  name: "BatchNorm_1/Const_3"
  op: "Const"
  attr {
    key: "dtype"
    value {
      type: DT_FLOAT
    }
  }
  attr {
    key: "value"
    value {
      tensor {
        dtype: DT_FLOAT
        tensor_shape {
        }
        float_val: 0.9990000128746033
      }
    }
  }
}
node {
  name: "BatchNorm_1/AssignMovingAvg/sub/x"
  op: "Const"
  attr {
    key: "_class"
    value {
      list {
        s: "loc:@BatchNorm_1/moving_mean"
      }
    }
  }
  attr {
    key: "dtype"
    value {
      type: DT_FLOAT
    }
  }
  attr {
    key: "value"
    value {
      tensor {
        dtype: DT_FLOAT
        tensor_shape {
        }
        float_val: 1.0
      }
    }
  }
}
node {
  name: "BatchNorm_1/AssignMovingAvg/sub"
  op: "Sub"
  input: "BatchNorm_1/AssignMovingAvg/sub/x"
  input: "BatchNorm_1/Const_3"
  attr {
    key: "T"
    value {
      type: DT_FLOAT
    }
  }
  attr {
    key: "_class"
    value {
      list {
        s: "loc:@BatchNorm_1/moving_mean"
      }
    }
  }
}
node {
  name: "BatchNorm_1/AssignMovingAvg/sub_1"
  op: "Sub"
  input: "BatchNorm_1/moving_mean/read"
  input: "BatchNorm_1/FusedBatchNorm:1"
  attr {
    key: "T"
    value {
      type: DT_FLOAT
    }
  }
  attr {
    key: "_class"
    value {
      list {
        s: "loc:@BatchNorm_1/moving_mean"
      }
    }
  }
}
node {
  name: "BatchNorm_1/AssignMovingAvg/mul"
  op: "Mul"
  input: "BatchNorm_1/AssignMovingAvg/sub_1"
  input: "BatchNorm_1/AssignMovingAvg/sub"
  attr {
    key: "T"
    value {
      type: DT_FLOAT
    }
  }
  attr {
    key: "_class"
    value {
      list {
        s: "loc:@BatchNorm_1/moving_mean"
      }
    }
  }
}
node {
  name: "BatchNorm_1/AssignMovingAvg"
  op: "AssignSub"
  input: "BatchNorm_1/moving_mean"
  input: "BatchNorm_1/AssignMovingAvg/mul"
  attr {
    key: "T"
    value {
      type: DT_FLOAT
    }
  }
  attr {
    key: "_class"
    value {
      list {
        s: "loc:@BatchNorm_1/moving_mean"
      }
    }
  }
  attr {
    key: "use_locking"
    value {
      b: false
    }
  }
}
node {
  name: "BatchNorm_1/AssignMovingAvg_1/sub/x"
  op: "Const"
  attr {
    key: "_class"
    value {
      list {
        s: "loc:@BatchNorm_1/moving_variance"
      }
    }
  }
  attr {
    key: "dtype"
    value {
      type: DT_FLOAT
    }
  }
  attr {
    key: "value"
    value {
      tensor {
        dtype: DT_FLOAT
        tensor_shape {
        }
        float_val: 1.0
      }
    }
  }
}
node {
  name: "BatchNorm_1/AssignMovingAvg_1/sub"
  op: "Sub"
  input: "BatchNorm_1/AssignMovingAvg_1/sub/x"
  input: "BatchNorm_1/Const_3"
  attr {
    key: "T"
    value {
      type: DT_FLOAT
    }
  }
  attr {
    key: "_class"
    value {
      list {
        s: "loc:@BatchNorm_1/moving_variance"
      }
    }
  }
}
node {
  name: "BatchNorm_1/AssignMovingAvg_1/sub_1"
  op: "Sub"
  input: "BatchNorm_1/moving_variance/read"
  input: "BatchNorm_1/FusedBatchNorm:2"
  attr {
    key: "T"
    value {
      type: DT_FLOAT
    }
  }
  attr {
    key: "_class"
    value {
      list {
        s: "loc:@BatchNorm_1/moving_variance"
      }
    }
  }
}
node {
  name: "BatchNorm_1/AssignMovingAvg_1/mul"
  op: "Mul"
  input: "BatchNorm_1/AssignMovingAvg_1/sub_1"
  input: "BatchNorm_1/AssignMovingAvg_1/sub"
  attr {
    key: "T"
    value {
      type: DT_FLOAT
    }
  }
  attr {
    key: "_class"
    value {
      list {
        s: "loc:@BatchNorm_1/moving_variance"
      }
    }
  }
}
node {
  name: "BatchNorm_1/AssignMovingAvg_1"
  op: "AssignSub"
  input: "BatchNorm_1/moving_variance"
  input: "BatchNorm_1/AssignMovingAvg_1/mul"
  attr {
    key: "T"
    value {
      type: DT_FLOAT
    }
  }
  attr {
    key: "_class"
    value {
      list {
        s: "loc:@BatchNorm_1/moving_variance"
      }
    }
  }
  attr {
    key: "use_locking"
    value {
      b: false
    }
  }
}
node {
  name: "bottleneck_1_0/proj/alpha/Initializer/Const"
  op: "Const"
  attr {
    key: "_class"
    value {
      list {
        s: "loc:@bottleneck_1_0/proj/alpha"
      }
    }
  }
  attr {
    key: "dtype"
    value {
      type: DT_FLOAT
    }
  }
  attr {
    key: "value"
    value {
      tensor {
        dtype: DT_FLOAT
        tensor_shape {
          dim {
            size: 1
          }
        }
        float_val: 0.0
      }
    }
  }
}
node {
  name: "bottleneck_1_0/proj/alpha"
  op: "VariableV2"
  attr {
    key: "_class"
    value {
      list {
        s: "loc:@bottleneck_1_0/proj/alpha"
      }
    }
  }
  attr {
    key: "container"
    value {
      s: ""
    }
  }
  attr {
    key: "dtype"
    value {
      type: DT_FLOAT
    }
  }
  attr {
    key: "shape"
    value {
      shape {
        dim {
          size: 1
        }
      }
    }
  }
  attr {
    key: "shared_name"
    value {
      s: ""
    }
  }
}
node {
  name: "bottleneck_1_0/proj/alpha/Assign"
  op: "Assign"
  input: "bottleneck_1_0/proj/alpha"
  input: "bottleneck_1_0/proj/alpha/Initializer/Const"
  attr {
    key: "T"
    value {
      type: DT_FLOAT
    }
  }
  attr {
    key: "_class"
    value {
      list {
        s: "loc:@bottleneck_1_0/proj/alpha"
      }
    }
  }
  attr {
    key: "use_locking"
    value {
      b: true
    }
  }
  attr {
    key: "validate_shape"
    value {
      b: true
    }
  }
}
node {
  name: "bottleneck_1_0/proj/alpha/read"
  op: "Identity"
  input: "bottleneck_1_0/proj/alpha"
  attr {
    key: "T"
    value {
      type: DT_FLOAT
    }
  }
  attr {
    key: "_class"
    value {
      list {
        s: "loc:@bottleneck_1_0/proj/alpha"
      }
    }
  }
}
node {
  name: "Relu_1"
  op: "Relu"
  input: "BatchNorm_1/FusedBatchNorm"
  attr {
    key: "T"
    value {
      type: DT_FLOAT
    }
  }
}
node {
  name: "Abs_1"
  op: "Abs"
  input: "BatchNorm_1/FusedBatchNorm"
  attr {
    key: "T"
    value {
      type: DT_FLOAT
    }
  }
}
node {
  name: "sub_1"
  op: "Sub"
  input: "BatchNorm_1/FusedBatchNorm"
  input: "Abs_1"
  attr {
    key: "T"
    value {
      type: DT_FLOAT
    }
  }
}
node {
  name: "mul_5"
  op: "Mul"
  input: "bottleneck_1_0/proj/alpha/read"
  input: "sub_1"
  attr {
    key: "T"
    value {
      type: DT_FLOAT
    }
  }
}
node {
  name: "mul_6/y"
  op: "Const"
  attr {
    key: "dtype"
    value {
      type: DT_FLOAT
    }
  }
  attr {
    key: "value"
    value {
      tensor {
        dtype: DT_FLOAT
        tensor_shape {
        }
        float_val: 0.5
      }
    }
  }
}
node {
  name: "mul_6"
  op: "Mul"
  input: "mul_5"
  input: "mul_6/y"
  attr {
    key: "T"
    value {
      type: DT_FLOAT
    }
  }
}
node {
  name: "add_2"
  op: "Add"
  input: "Relu_1"
  input: "mul_6"
  attr {
    key: "T"
    value {
      type: DT_FLOAT
    }
  }
}
node {
  name: "bottleneck_1_0/W_conv/Initializer/random_uniform/shape"
  op: "Const"
  attr {
    key: "_class"
    value {
      list {
        s: "loc:@bottleneck_1_0/W_conv"
      }
    }
  }
  attr {
    key: "dtype"
    value {
      type: DT_INT32
    }
  }
  attr {
    key: "value"
    value {
      tensor {
        dtype: DT_INT32
        tensor_shape {
          dim {
            size: 4
          }
        }
        tensor_content: "\003\000\000\000\003\000\000\000\020\000\000\000\020\000\000\000"
      }
    }
  }
}
node {
  name: "bottleneck_1_0/W_conv/Initializer/random_uniform/min"
  op: "Const"
  attr {
    key: "_class"
    value {
      list {
        s: "loc:@bottleneck_1_0/W_conv"
      }
    }
  }
  attr {
    key: "dtype"
    value {
      type: DT_FLOAT
    }
  }
  attr {
    key: "value"
    value {
      tensor {
        dtype: DT_FLOAT
        tensor_shape {
        }
        float_val: -0.14433756470680237
      }
    }
  }
}
node {
  name: "bottleneck_1_0/W_conv/Initializer/random_uniform/max"
  op: "Const"
  attr {
    key: "_class"
    value {
      list {
        s: "loc:@bottleneck_1_0/W_conv"
      }
    }
  }
  attr {
    key: "dtype"
    value {
      type: DT_FLOAT
    }
  }
  attr {
    key: "value"
    value {
      tensor {
        dtype: DT_FLOAT
        tensor_shape {
        }
        float_val: 0.14433756470680237
      }
    }
  }
}
node {
  name: "bottleneck_1_0/W_conv/Initializer/random_uniform/RandomUniform"
  op: "RandomUniform"
  input: "bottleneck_1_0/W_conv/Initializer/random_uniform/shape"
  attr {
    key: "T"
    value {
      type: DT_INT32
    }
  }
  attr {
    key: "_class"
    value {
      list {
        s: "loc:@bottleneck_1_0/W_conv"
      }
    }
  }
  attr {
    key: "dtype"
    value {
      type: DT_FLOAT
    }
  }
  attr {
    key: "seed"
    value {
      i: 0
    }
  }
  attr {
    key: "seed2"
    value {
      i: 0
    }
  }
}
node {
  name: "bottleneck_1_0/W_conv/Initializer/random_uniform/sub"
  op: "Sub"
  input: "bottleneck_1_0/W_conv/Initializer/random_uniform/max"
  input: "bottleneck_1_0/W_conv/Initializer/random_uniform/min"
  attr {
    key: "T"
    value {
      type: DT_FLOAT
    }
  }
  attr {
    key: "_class"
    value {
      list {
        s: "loc:@bottleneck_1_0/W_conv"
      }
    }
  }
}
node {
  name: "bottleneck_1_0/W_conv/Initializer/random_uniform/mul"
  op: "Mul"
  input: "bottleneck_1_0/W_conv/Initializer/random_uniform/RandomUniform"
  input: "bottleneck_1_0/W_conv/Initializer/random_uniform/sub"
  attr {
    key: "T"
    value {
      type: DT_FLOAT
    }
  }
  attr {
    key: "_class"
    value {
      list {
        s: "loc:@bottleneck_1_0/W_conv"
      }
    }
  }
}
node {
  name: "bottleneck_1_0/W_conv/Initializer/random_uniform"
  op: "Add"
  input: "bottleneck_1_0/W_conv/Initializer/random_uniform/mul"
  input: "bottleneck_1_0/W_conv/Initializer/random_uniform/min"
  attr {
    key: "T"
    value {
      type: DT_FLOAT
    }
  }
  attr {
    key: "_class"
    value {
      list {
        s: "loc:@bottleneck_1_0/W_conv"
      }
    }
  }
}
node {
  name: "bottleneck_1_0/W_conv"
  op: "VariableV2"
  attr {
    key: "_class"
    value {
      list {
        s: "loc:@bottleneck_1_0/W_conv"
      }
    }
  }
  attr {
    key: "container"
    value {
      s: ""
    }
  }
  attr {
    key: "dtype"
    value {
      type: DT_FLOAT
    }
  }
  attr {
    key: "shape"
    value {
      shape {
        dim {
          size: 3
        }
        dim {
          size: 3
        }
        dim {
          size: 16
        }
        dim {
          size: 16
        }
      }
    }
  }
  attr {
    key: "shared_name"
    value {
      s: ""
    }
  }
}
node {
  name: "bottleneck_1_0/W_conv/Assign"
  op: "Assign"
  input: "bottleneck_1_0/W_conv"
  input: "bottleneck_1_0/W_conv/Initializer/random_uniform"
  attr {
    key: "T"
    value {
      type: DT_FLOAT
    }
  }
  attr {
    key: "_class"
    value {
      list {
        s: "loc:@bottleneck_1_0/W_conv"
      }
    }
  }
  attr {
    key: "use_locking"
    value {
      b: true
    }
  }
  attr {
    key: "validate_shape"
    value {
      b: true
    }
  }
}
node {
  name: "bottleneck_1_0/W_conv/read"
  op: "Identity"
  input: "bottleneck_1_0/W_conv"
  attr {
    key: "T"
    value {
      type: DT_FLOAT
    }
  }
  attr {
    key: "_class"
    value {
      list {
        s: "loc:@bottleneck_1_0/W_conv"
      }
    }
  }
}
node {
  name: "L2Loss_3"
  op: "L2Loss"
  input: "bottleneck_1_0/W_conv/read"
  attr {
    key: "T"
    value {
      type: DT_FLOAT
    }
  }
}
node {
  name: "mul_7/x"
  op: "Const"
  attr {
    key: "dtype"
    value {
      type: DT_FLOAT
    }
  }
  attr {
    key: "value"
    value {
      tensor {
        dtype: DT_FLOAT
        tensor_shape {
        }
        float_val: 0.00019999999494757503
      }
    }
  }
}
node {
  name: "mul_7"
  op: "Mul"
  input: "mul_7/x"
  input: "L2Loss_3"
  attr {
    key: "T"
    value {
      type: DT_FLOAT
    }
  }
}
node {
  name: "bottleneck_1_0/b_conv/Initializer/Const"
  op: "Const"
  attr {
    key: "_class"
    value {
      list {
        s: "loc:@bottleneck_1_0/b_conv"
      }
    }
  }
  attr {
    key: "dtype"
    value {
      type: DT_FLOAT
    }
  }
  attr {
    key: "value"
    value {
      tensor {
        dtype: DT_FLOAT
        tensor_shape {
          dim {
            size: 16
          }
        }
        float_val: 0.0
      }
    }
  }
}
node {
  name: "bottleneck_1_0/b_conv"
  op: "VariableV2"
  attr {
    key: "_class"
    value {
      list {
        s: "loc:@bottleneck_1_0/b_conv"
      }
    }
  }
  attr {
    key: "container"
    value {
      s: ""
    }
  }
  attr {
    key: "dtype"
    value {
      type: DT_FLOAT
    }
  }
  attr {
    key: "shape"
    value {
      shape {
        dim {
          size: 16
        }
      }
    }
  }
  attr {
    key: "shared_name"
    value {
      s: ""
    }
  }
}
node {
  name: "bottleneck_1_0/b_conv/Assign"
  op: "Assign"
  input: "bottleneck_1_0/b_conv"
  input: "bottleneck_1_0/b_conv/Initializer/Const"
  attr {
    key: "T"
    value {
      type: DT_FLOAT
    }
  }
  attr {
    key: "_class"
    value {
      list {
        s: "loc:@bottleneck_1_0/b_conv"
      }
    }
  }
  attr {
    key: "use_locking"
    value {
      b: true
    }
  }
  attr {
    key: "validate_shape"
    value {
      b: true
    }
  }
}
node {
  name: "bottleneck_1_0/b_conv/read"
  op: "Identity"
  input: "bottleneck_1_0/b_conv"
  attr {
    key: "T"
    value {
      type: DT_FLOAT
    }
  }
  attr {
    key: "_class"
    value {
      list {
        s: "loc:@bottleneck_1_0/b_conv"
      }
    }
  }
}
node {
  name: "L2Loss_4"
  op: "L2Loss"
  input: "bottleneck_1_0/b_conv/read"
  attr {
    key: "T"
    value {
      type: DT_FLOAT
    }
  }
}
node {
  name: "mul_8/x"
  op: "Const"
  attr {
    key: "dtype"
    value {
      type: DT_FLOAT
    }
  }
  attr {
    key: "value"
    value {
      tensor {
        dtype: DT_FLOAT
        tensor_shape {
        }
        float_val: 0.00019999999494757503
      }
    }
  }
}
node {
  name: "mul_8"
  op: "Mul"
  input: "mul_8/x"
  input: "L2Loss_4"
  attr {
    key: "T"
    value {
      type: DT_FLOAT
    }
  }
}
node {
  name: "Conv2D_2"
  op: "Conv2D"
  input: "add_2"
  input: "bottleneck_1_0/W_conv/read"
  attr {
    key: "T"
    value {
      type: DT_FLOAT
    }
  }
  attr {
    key: "data_format"
    value {
      s: "NHWC"
    }
  }
  attr {
    key: "dilations"
    value {
      list {
        i: 1
        i: 1
        i: 1
        i: 1
      }
    }
  }
  attr {
    key: "padding"
    value {
      s: "SAME"
    }
  }
  attr {
    key: "strides"
    value {
      list {
        i: 1
        i: 1
        i: 1
        i: 1
      }
    }
  }
  attr {
    key: "use_cudnn_on_gpu"
    value {
      b: true
    }
  }
}
node {
  name: "add_3"
  op: "Add"
  input: "Conv2D_2"
  input: "bottleneck_1_0/b_conv/read"
  attr {
    key: "T"
    value {
      type: DT_FLOAT
    }
  }
}
node {
  name: "BatchNorm_2/Const"
  op: "Const"
  attr {
    key: "dtype"
    value {
      type: DT_FLOAT
    }
  }
  attr {
    key: "value"
    value {
      tensor {
        dtype: DT_FLOAT
        tensor_shape {
          dim {
            size: 16
          }
        }
        float_val: 1.0
      }
    }
  }
}
node {
  name: "BatchNorm_2/beta/Initializer/zeros"
  op: "Const"
  attr {
    key: "_class"
    value {
      list {
        s: "loc:@BatchNorm_2/beta"
      }
    }
  }
  attr {
    key: "dtype"
    value {
      type: DT_FLOAT
    }
  }
  attr {
    key: "value"
    value {
      tensor {
        dtype: DT_FLOAT
        tensor_shape {
          dim {
            size: 16
          }
        }
        float_val: 0.0
      }
    }
  }
}
node {
  name: "BatchNorm_2/beta"
  op: "VariableV2"
  attr {
    key: "_class"
    value {
      list {
        s: "loc:@BatchNorm_2/beta"
      }
    }
  }
  attr {
    key: "container"
    value {
      s: ""
    }
  }
  attr {
    key: "dtype"
    value {
      type: DT_FLOAT
    }
  }
  attr {
    key: "shape"
    value {
      shape {
        dim {
          size: 16
        }
      }
    }
  }
  attr {
    key: "shared_name"
    value {
      s: ""
    }
  }
}
node {
  name: "BatchNorm_2/beta/Assign"
  op: "Assign"
  input: "BatchNorm_2/beta"
  input: "BatchNorm_2/beta/Initializer/zeros"
  attr {
    key: "T"
    value {
      type: DT_FLOAT
    }
  }
  attr {
    key: "_class"
    value {
      list {
        s: "loc:@BatchNorm_2/beta"
      }
    }
  }
  attr {
    key: "use_locking"
    value {
      b: true
    }
  }
  attr {
    key: "validate_shape"
    value {
      b: true
    }
  }
}
node {
  name: "BatchNorm_2/beta/read"
  op: "Identity"
  input: "BatchNorm_2/beta"
  attr {
    key: "T"
    value {
      type: DT_FLOAT
    }
  }
  attr {
    key: "_class"
    value {
      list {
        s: "loc:@BatchNorm_2/beta"
      }
    }
  }
}
node {
  name: "BatchNorm_2/moving_mean/Initializer/zeros"
  op: "Const"
  attr {
    key: "_class"
    value {
      list {
        s: "loc:@BatchNorm_2/moving_mean"
      }
    }
  }
  attr {
    key: "dtype"
    value {
      type: DT_FLOAT
    }
  }
  attr {
    key: "value"
    value {
      tensor {
        dtype: DT_FLOAT
        tensor_shape {
          dim {
            size: 16
          }
        }
        float_val: 0.0
      }
    }
  }
}
node {
  name: "BatchNorm_2/moving_mean"
  op: "VariableV2"
  attr {
    key: "_class"
    value {
      list {
        s: "loc:@BatchNorm_2/moving_mean"
      }
    }
  }
  attr {
    key: "container"
    value {
      s: ""
    }
  }
  attr {
    key: "dtype"
    value {
      type: DT_FLOAT
    }
  }
  attr {
    key: "shape"
    value {
      shape {
        dim {
          size: 16
        }
      }
    }
  }
  attr {
    key: "shared_name"
    value {
      s: ""
    }
  }
}
node {
  name: "BatchNorm_2/moving_mean/Assign"
  op: "Assign"
  input: "BatchNorm_2/moving_mean"
  input: "BatchNorm_2/moving_mean/Initializer/zeros"
  attr {
    key: "T"
    value {
      type: DT_FLOAT
    }
  }
  attr {
    key: "_class"
    value {
      list {
        s: "loc:@BatchNorm_2/moving_mean"
      }
    }
  }
  attr {
    key: "use_locking"
    value {
      b: true
    }
  }
  attr {
    key: "validate_shape"
    value {
      b: true
    }
  }
}
node {
  name: "BatchNorm_2/moving_mean/read"
  op: "Identity"
  input: "BatchNorm_2/moving_mean"
  attr {
    key: "T"
    value {
      type: DT_FLOAT
    }
  }
  attr {
    key: "_class"
    value {
      list {
        s: "loc:@BatchNorm_2/moving_mean"
      }
    }
  }
}
node {
  name: "BatchNorm_2/moving_variance/Initializer/ones"
  op: "Const"
  attr {
    key: "_class"
    value {
      list {
        s: "loc:@BatchNorm_2/moving_variance"
      }
    }
  }
  attr {
    key: "dtype"
    value {
      type: DT_FLOAT
    }
  }
  attr {
    key: "value"
    value {
      tensor {
        dtype: DT_FLOAT
        tensor_shape {
          dim {
            size: 16
          }
        }
        float_val: 1.0
      }
    }
  }
}
node {
  name: "BatchNorm_2/moving_variance"
  op: "VariableV2"
  attr {
    key: "_class"
    value {
      list {
        s: "loc:@BatchNorm_2/moving_variance"
      }
    }
  }
  attr {
    key: "container"
    value {
      s: ""
    }
  }
  attr {
    key: "dtype"
    value {
      type: DT_FLOAT
    }
  }
  attr {
    key: "shape"
    value {
      shape {
        dim {
          size: 16
        }
      }
    }
  }
  attr {
    key: "shared_name"
    value {
      s: ""
    }
  }
}
node {
  name: "BatchNorm_2/moving_variance/Assign"
  op: "Assign"
  input: "BatchNorm_2/moving_variance"
  input: "BatchNorm_2/moving_variance/Initializer/ones"
  attr {
    key: "T"
    value {
      type: DT_FLOAT
    }
  }
  attr {
    key: "_class"
    value {
      list {
        s: "loc:@BatchNorm_2/moving_variance"
      }
    }
  }
  attr {
    key: "use_locking"
    value {
      b: true
    }
  }
  attr {
    key: "validate_shape"
    value {
      b: true
    }
  }
}
node {
  name: "BatchNorm_2/moving_variance/read"
  op: "Identity"
  input: "BatchNorm_2/moving_variance"
  attr {
    key: "T"
    value {
      type: DT_FLOAT
    }
  }
  attr {
    key: "_class"
    value {
      list {
        s: "loc:@BatchNorm_2/moving_variance"
      }
    }
  }
}
node {
  name: "BatchNorm_2/Const_1"
  op: "Const"
  attr {
    key: "dtype"
    value {
      type: DT_FLOAT
    }
  }
  attr {
    key: "value"
    value {
      tensor {
        dtype: DT_FLOAT
        tensor_shape {
          dim {
          }
        }
      }
    }
  }
}
node {
  name: "BatchNorm_2/Const_2"
  op: "Const"
  attr {
    key: "dtype"
    value {
      type: DT_FLOAT
    }
  }
  attr {
    key: "value"
    value {
      tensor {
        dtype: DT_FLOAT
        tensor_shape {
          dim {
          }
        }
      }
    }
  }
}
node {
  name: "BatchNorm_2/FusedBatchNorm"
  op: "FusedBatchNorm"
  input: "add_3"
  input: "BatchNorm_2/Const"
  input: "BatchNorm_2/beta/read"
  input: "BatchNorm_2/Const_1"
  input: "BatchNorm_2/Const_2"
  attr {
    key: "T"
    value {
      type: DT_FLOAT
    }
  }
  attr {
    key: "data_format"
    value {
      s: "NHWC"
    }
  }
  attr {
    key: "epsilon"
    value {
      f: 0.0010000000474974513
    }
  }
  attr {
    key: "is_training"
    value {
      b: true
    }
  }
}
node {
  name: "BatchNorm_2/Const_3"
  op: "Const"
  attr {
    key: "dtype"
    value {
      type: DT_FLOAT
    }
  }
  attr {
    key: "value"
    value {
      tensor {
        dtype: DT_FLOAT
        tensor_shape {
        }
        float_val: 0.9990000128746033
      }
    }
  }
}
node {
  name: "BatchNorm_2/AssignMovingAvg/sub/x"
  op: "Const"
  attr {
    key: "_class"
    value {
      list {
        s: "loc:@BatchNorm_2/moving_mean"
      }
    }
  }
  attr {
    key: "dtype"
    value {
      type: DT_FLOAT
    }
  }
  attr {
    key: "value"
    value {
      tensor {
        dtype: DT_FLOAT
        tensor_shape {
        }
        float_val: 1.0
      }
    }
  }
}
node {
  name: "BatchNorm_2/AssignMovingAvg/sub"
  op: "Sub"
  input: "BatchNorm_2/AssignMovingAvg/sub/x"
  input: "BatchNorm_2/Const_3"
  attr {
    key: "T"
    value {
      type: DT_FLOAT
    }
  }
  attr {
    key: "_class"
    value {
      list {
        s: "loc:@BatchNorm_2/moving_mean"
      }
    }
  }
}
node {
  name: "BatchNorm_2/AssignMovingAvg/sub_1"
  op: "Sub"
  input: "BatchNorm_2/moving_mean/read"
  input: "BatchNorm_2/FusedBatchNorm:1"
  attr {
    key: "T"
    value {
      type: DT_FLOAT
    }
  }
  attr {
    key: "_class"
    value {
      list {
        s: "loc:@BatchNorm_2/moving_mean"
      }
    }
  }
}
node {
  name: "BatchNorm_2/AssignMovingAvg/mul"
  op: "Mul"
  input: "BatchNorm_2/AssignMovingAvg/sub_1"
  input: "BatchNorm_2/AssignMovingAvg/sub"
  attr {
    key: "T"
    value {
      type: DT_FLOAT
    }
  }
  attr {
    key: "_class"
    value {
      list {
        s: "loc:@BatchNorm_2/moving_mean"
      }
    }
  }
}
node {
  name: "BatchNorm_2/AssignMovingAvg"
  op: "AssignSub"
  input: "BatchNorm_2/moving_mean"
  input: "BatchNorm_2/AssignMovingAvg/mul"
  attr {
    key: "T"
    value {
      type: DT_FLOAT
    }
  }
  attr {
    key: "_class"
    value {
      list {
        s: "loc:@BatchNorm_2/moving_mean"
      }
    }
  }
  attr {
    key: "use_locking"
    value {
      b: false
    }
  }
}
node {
  name: "BatchNorm_2/AssignMovingAvg_1/sub/x"
  op: "Const"
  attr {
    key: "_class"
    value {
      list {
        s: "loc:@BatchNorm_2/moving_variance"
      }
    }
  }
  attr {
    key: "dtype"
    value {
      type: DT_FLOAT
    }
  }
  attr {
    key: "value"
    value {
      tensor {
        dtype: DT_FLOAT
        tensor_shape {
        }
        float_val: 1.0
      }
    }
  }
}
node {
  name: "BatchNorm_2/AssignMovingAvg_1/sub"
  op: "Sub"
  input: "BatchNorm_2/AssignMovingAvg_1/sub/x"
  input: "BatchNorm_2/Const_3"
  attr {
    key: "T"
    value {
      type: DT_FLOAT
    }
  }
  attr {
    key: "_class"
    value {
      list {
        s: "loc:@BatchNorm_2/moving_variance"
      }
    }
  }
}
node {
  name: "BatchNorm_2/AssignMovingAvg_1/sub_1"
  op: "Sub"
  input: "BatchNorm_2/moving_variance/read"
  input: "BatchNorm_2/FusedBatchNorm:2"
  attr {
    key: "T"
    value {
      type: DT_FLOAT
    }
  }
  attr {
    key: "_class"
    value {
      list {
        s: "loc:@BatchNorm_2/moving_variance"
      }
    }
  }
}
node {
  name: "BatchNorm_2/AssignMovingAvg_1/mul"
  op: "Mul"
  input: "BatchNorm_2/AssignMovingAvg_1/sub_1"
  input: "BatchNorm_2/AssignMovingAvg_1/sub"
  attr {
    key: "T"
    value {
      type: DT_FLOAT
    }
  }
  attr {
    key: "_class"
    value {
      list {
        s: "loc:@BatchNorm_2/moving_variance"
      }
    }
  }
}
node {
  name: "BatchNorm_2/AssignMovingAvg_1"
  op: "AssignSub"
  input: "BatchNorm_2/moving_variance"
  input: "BatchNorm_2/AssignMovingAvg_1/mul"
  attr {
    key: "T"
    value {
      type: DT_FLOAT
    }
  }
  attr {
    key: "_class"
    value {
      list {
        s: "loc:@BatchNorm_2/moving_variance"
      }
    }
  }
  attr {
    key: "use_locking"
    value {
      b: false
    }
  }
}
node {
  name: "bottleneck_1_0/conv/alpha/Initializer/Const"
  op: "Const"
  attr {
    key: "_class"
    value {
      list {
        s: "loc:@bottleneck_1_0/conv/alpha"
      }
    }
  }
  attr {
    key: "dtype"
    value {
      type: DT_FLOAT
    }
  }
  attr {
    key: "value"
    value {
      tensor {
        dtype: DT_FLOAT
        tensor_shape {
          dim {
            size: 1
          }
        }
        float_val: 0.0
      }
    }
  }
}
node {
  name: "bottleneck_1_0/conv/alpha"
  op: "VariableV2"
  attr {
    key: "_class"
    value {
      list {
        s: "loc:@bottleneck_1_0/conv/alpha"
      }
    }
  }
  attr {
    key: "container"
    value {
      s: ""
    }
  }
  attr {
    key: "dtype"
    value {
      type: DT_FLOAT
    }
  }
  attr {
    key: "shape"
    value {
      shape {
        dim {
          size: 1
        }
      }
    }
  }
  attr {
    key: "shared_name"
    value {
      s: ""
    }
  }
}
node {
  name: "bottleneck_1_0/conv/alpha/Assign"
  op: "Assign"
  input: "bottleneck_1_0/conv/alpha"
  input: "bottleneck_1_0/conv/alpha/Initializer/Const"
  attr {
    key: "T"
    value {
      type: DT_FLOAT
    }
  }
  attr {
    key: "_class"
    value {
      list {
        s: "loc:@bottleneck_1_0/conv/alpha"
      }
    }
  }
  attr {
    key: "use_locking"
    value {
      b: true
    }
  }
  attr {
    key: "validate_shape"
    value {
      b: true
    }
  }
}
node {
  name: "bottleneck_1_0/conv/alpha/read"
  op: "Identity"
  input: "bottleneck_1_0/conv/alpha"
  attr {
    key: "T"
    value {
      type: DT_FLOAT
    }
  }
  attr {
    key: "_class"
    value {
      list {
        s: "loc:@bottleneck_1_0/conv/alpha"
      }
    }
  }
}
node {
  name: "Relu_2"
  op: "Relu"
  input: "BatchNorm_2/FusedBatchNorm"
  attr {
    key: "T"
    value {
      type: DT_FLOAT
    }
  }
}
node {
  name: "Abs_2"
  op: "Abs"
  input: "BatchNorm_2/FusedBatchNorm"
  attr {
    key: "T"
    value {
      type: DT_FLOAT
    }
  }
}
node {
  name: "sub_2"
  op: "Sub"
  input: "BatchNorm_2/FusedBatchNorm"
  input: "Abs_2"
  attr {
    key: "T"
    value {
      type: DT_FLOAT
    }
  }
}
node {
  name: "mul_9"
  op: "Mul"
  input: "bottleneck_1_0/conv/alpha/read"
  input: "sub_2"
  attr {
    key: "T"
    value {
      type: DT_FLOAT
    }
  }
}
node {
  name: "mul_10/y"
  op: "Const"
  attr {
    key: "dtype"
    value {
      type: DT_FLOAT
    }
  }
  attr {
    key: "value"
    value {
      tensor {
        dtype: DT_FLOAT
        tensor_shape {
        }
        float_val: 0.5
      }
    }
  }
}
node {
  name: "mul_10"
  op: "Mul"
  input: "mul_9"
  input: "mul_10/y"
  attr {
    key: "T"
    value {
      type: DT_FLOAT
    }
  }
}
node {
  name: "add_4"
  op: "Add"
  input: "Relu_2"
  input: "mul_10"
  attr {
    key: "T"
    value {
      type: DT_FLOAT
    }
  }
}
node {
  name: "bottleneck_1_0/W_exp/Initializer/random_uniform/shape"
  op: "Const"
  attr {
    key: "_class"
    value {
      list {
        s: "loc:@bottleneck_1_0/W_exp"
      }
    }
  }
  attr {
    key: "dtype"
    value {
      type: DT_INT32
    }
  }
  attr {
    key: "value"
    value {
      tensor {
        dtype: DT_INT32
        tensor_shape {
          dim {
            size: 4
          }
        }
        tensor_content: "\001\000\000\000\001\000\000\000\020\000\000\000@\000\000\000"
      }
    }
  }
}
node {
  name: "bottleneck_1_0/W_exp/Initializer/random_uniform/min"
  op: "Const"
  attr {
    key: "_class"
    value {
      list {
        s: "loc:@bottleneck_1_0/W_exp"
      }
    }
  }
  attr {
    key: "dtype"
    value {
      type: DT_FLOAT
    }
  }
  attr {
    key: "value"
    value {
      tensor {
        dtype: DT_FLOAT
        tensor_shape {
        }
        float_val: -0.273861289024353
      }
    }
  }
}
node {
  name: "bottleneck_1_0/W_exp/Initializer/random_uniform/max"
  op: "Const"
  attr {
    key: "_class"
    value {
      list {
        s: "loc:@bottleneck_1_0/W_exp"
      }
    }
  }
  attr {
    key: "dtype"
    value {
      type: DT_FLOAT
    }
  }
  attr {
    key: "value"
    value {
      tensor {
        dtype: DT_FLOAT
        tensor_shape {
        }
        float_val: 0.273861289024353
      }
    }
  }
}
node {
  name: "bottleneck_1_0/W_exp/Initializer/random_uniform/RandomUniform"
  op: "RandomUniform"
  input: "bottleneck_1_0/W_exp/Initializer/random_uniform/shape"
  attr {
    key: "T"
    value {
      type: DT_INT32
    }
  }
  attr {
    key: "_class"
    value {
      list {
        s: "loc:@bottleneck_1_0/W_exp"
      }
    }
  }
  attr {
    key: "dtype"
    value {
      type: DT_FLOAT
    }
  }
  attr {
    key: "seed"
    value {
      i: 0
    }
  }
  attr {
    key: "seed2"
    value {
      i: 0
    }
  }
}
node {
  name: "bottleneck_1_0/W_exp/Initializer/random_uniform/sub"
  op: "Sub"
  input: "bottleneck_1_0/W_exp/Initializer/random_uniform/max"
  input: "bottleneck_1_0/W_exp/Initializer/random_uniform/min"
  attr {
    key: "T"
    value {
      type: DT_FLOAT
    }
  }
  attr {
    key: "_class"
    value {
      list {
        s: "loc:@bottleneck_1_0/W_exp"
      }
    }
  }
}
node {
  name: "bottleneck_1_0/W_exp/Initializer/random_uniform/mul"
  op: "Mul"
  input: "bottleneck_1_0/W_exp/Initializer/random_uniform/RandomUniform"
  input: "bottleneck_1_0/W_exp/Initializer/random_uniform/sub"
  attr {
    key: "T"
    value {
      type: DT_FLOAT
    }
  }
  attr {
    key: "_class"
    value {
      list {
        s: "loc:@bottleneck_1_0/W_exp"
      }
    }
  }
}
node {
  name: "bottleneck_1_0/W_exp/Initializer/random_uniform"
  op: "Add"
  input: "bottleneck_1_0/W_exp/Initializer/random_uniform/mul"
  input: "bottleneck_1_0/W_exp/Initializer/random_uniform/min"
  attr {
    key: "T"
    value {
      type: DT_FLOAT
    }
  }
  attr {
    key: "_class"
    value {
      list {
        s: "loc:@bottleneck_1_0/W_exp"
      }
    }
  }
}
node {
  name: "bottleneck_1_0/W_exp"
  op: "VariableV2"
  attr {
    key: "_class"
    value {
      list {
        s: "loc:@bottleneck_1_0/W_exp"
      }
    }
  }
  attr {
    key: "container"
    value {
      s: ""
    }
  }
  attr {
    key: "dtype"
    value {
      type: DT_FLOAT
    }
  }
  attr {
    key: "shape"
    value {
      shape {
        dim {
          size: 1
        }
        dim {
          size: 1
        }
        dim {
          size: 16
        }
        dim {
          size: 64
        }
      }
    }
  }
  attr {
    key: "shared_name"
    value {
      s: ""
    }
  }
}
node {
  name: "bottleneck_1_0/W_exp/Assign"
  op: "Assign"
  input: "bottleneck_1_0/W_exp"
  input: "bottleneck_1_0/W_exp/Initializer/random_uniform"
  attr {
    key: "T"
    value {
      type: DT_FLOAT
    }
  }
  attr {
    key: "_class"
    value {
      list {
        s: "loc:@bottleneck_1_0/W_exp"
      }
    }
  }
  attr {
    key: "use_locking"
    value {
      b: true
    }
  }
  attr {
    key: "validate_shape"
    value {
      b: true
    }
  }
}
node {
  name: "bottleneck_1_0/W_exp/read"
  op: "Identity"
  input: "bottleneck_1_0/W_exp"
  attr {
    key: "T"
    value {
      type: DT_FLOAT
    }
  }
  attr {
    key: "_class"
    value {
      list {
        s: "loc:@bottleneck_1_0/W_exp"
      }
    }
  }
}
node {
  name: "L2Loss_5"
  op: "L2Loss"
  input: "bottleneck_1_0/W_exp/read"
  attr {
    key: "T"
    value {
      type: DT_FLOAT
    }
  }
}
node {
  name: "mul_11/x"
  op: "Const"
  attr {
    key: "dtype"
    value {
      type: DT_FLOAT
    }
  }
  attr {
    key: "value"
    value {
      tensor {
        dtype: DT_FLOAT
        tensor_shape {
        }
        float_val: 0.00019999999494757503
      }
    }
  }
}
node {
  name: "mul_11"
  op: "Mul"
  input: "mul_11/x"
  input: "L2Loss_5"
  attr {
    key: "T"
    value {
      type: DT_FLOAT
    }
  }
}
node {
  name: "Conv2D_3"
  op: "Conv2D"
  input: "add_4"
  input: "bottleneck_1_0/W_exp/read"
  attr {
    key: "T"
    value {
      type: DT_FLOAT
    }
  }
  attr {
    key: "data_format"
    value {
      s: "NHWC"
    }
  }
  attr {
    key: "dilations"
    value {
      list {
        i: 1
        i: 1
        i: 1
        i: 1
      }
    }
  }
  attr {
    key: "padding"
    value {
      s: "VALID"
    }
  }
  attr {
    key: "strides"
    value {
      list {
        i: 1
        i: 1
        i: 1
        i: 1
      }
    }
  }
  attr {
    key: "use_cudnn_on_gpu"
    value {
      b: true
    }
  }
}
node {
  name: "BatchNorm_3/Const"
  op: "Const"
  attr {
    key: "dtype"
    value {
      type: DT_FLOAT
    }
  }
  attr {
    key: "value"
    value {
      tensor {
        dtype: DT_FLOAT
        tensor_shape {
          dim {
            size: 64
          }
        }
        float_val: 1.0
      }
    }
  }
}
node {
  name: "BatchNorm_3/beta/Initializer/zeros"
  op: "Const"
  attr {
    key: "_class"
    value {
      list {
        s: "loc:@BatchNorm_3/beta"
      }
    }
  }
  attr {
    key: "dtype"
    value {
      type: DT_FLOAT
    }
  }
  attr {
    key: "value"
    value {
      tensor {
        dtype: DT_FLOAT
        tensor_shape {
          dim {
            size: 64
          }
        }
        float_val: 0.0
      }
    }
  }
}
node {
  name: "BatchNorm_3/beta"
  op: "VariableV2"
  attr {
    key: "_class"
    value {
      list {
        s: "loc:@BatchNorm_3/beta"
      }
    }
  }
  attr {
    key: "container"
    value {
      s: ""
    }
  }
  attr {
    key: "dtype"
    value {
      type: DT_FLOAT
    }
  }
  attr {
    key: "shape"
    value {
      shape {
        dim {
          size: 64
        }
      }
    }
  }
  attr {
    key: "shared_name"
    value {
      s: ""
    }
  }
}
node {
  name: "BatchNorm_3/beta/Assign"
  op: "Assign"
  input: "BatchNorm_3/beta"
  input: "BatchNorm_3/beta/Initializer/zeros"
  attr {
    key: "T"
    value {
      type: DT_FLOAT
    }
  }
  attr {
    key: "_class"
    value {
      list {
        s: "loc:@BatchNorm_3/beta"
      }
    }
  }
  attr {
    key: "use_locking"
    value {
      b: true
    }
  }
  attr {
    key: "validate_shape"
    value {
      b: true
    }
  }
}
node {
  name: "BatchNorm_3/beta/read"
  op: "Identity"
  input: "BatchNorm_3/beta"
  attr {
    key: "T"
    value {
      type: DT_FLOAT
    }
  }
  attr {
    key: "_class"
    value {
      list {
        s: "loc:@BatchNorm_3/beta"
      }
    }
  }
}
node {
  name: "BatchNorm_3/moving_mean/Initializer/zeros"
  op: "Const"
  attr {
    key: "_class"
    value {
      list {
        s: "loc:@BatchNorm_3/moving_mean"
      }
    }
  }
  attr {
    key: "dtype"
    value {
      type: DT_FLOAT
    }
  }
  attr {
    key: "value"
    value {
      tensor {
        dtype: DT_FLOAT
        tensor_shape {
          dim {
            size: 64
          }
        }
        float_val: 0.0
      }
    }
  }
}
node {
  name: "BatchNorm_3/moving_mean"
  op: "VariableV2"
  attr {
    key: "_class"
    value {
      list {
        s: "loc:@BatchNorm_3/moving_mean"
      }
    }
  }
  attr {
    key: "container"
    value {
      s: ""
    }
  }
  attr {
    key: "dtype"
    value {
      type: DT_FLOAT
    }
  }
  attr {
    key: "shape"
    value {
      shape {
        dim {
          size: 64
        }
      }
    }
  }
  attr {
    key: "shared_name"
    value {
      s: ""
    }
  }
}
node {
  name: "BatchNorm_3/moving_mean/Assign"
  op: "Assign"
  input: "BatchNorm_3/moving_mean"
  input: "BatchNorm_3/moving_mean/Initializer/zeros"
  attr {
    key: "T"
    value {
      type: DT_FLOAT
    }
  }
  attr {
    key: "_class"
    value {
      list {
        s: "loc:@BatchNorm_3/moving_mean"
      }
    }
  }
  attr {
    key: "use_locking"
    value {
      b: true
    }
  }
  attr {
    key: "validate_shape"
    value {
      b: true
    }
  }
}
node {
  name: "BatchNorm_3/moving_mean/read"
  op: "Identity"
  input: "BatchNorm_3/moving_mean"
  attr {
    key: "T"
    value {
      type: DT_FLOAT
    }
  }
  attr {
    key: "_class"
    value {
      list {
        s: "loc:@BatchNorm_3/moving_mean"
      }
    }
  }
}
node {
  name: "BatchNorm_3/moving_variance/Initializer/ones"
  op: "Const"
  attr {
    key: "_class"
    value {
      list {
        s: "loc:@BatchNorm_3/moving_variance"
      }
    }
  }
  attr {
    key: "dtype"
    value {
      type: DT_FLOAT
    }
  }
  attr {
    key: "value"
    value {
      tensor {
        dtype: DT_FLOAT
        tensor_shape {
          dim {
            size: 64
          }
        }
        float_val: 1.0
      }
    }
  }
}
node {
  name: "BatchNorm_3/moving_variance"
  op: "VariableV2"
  attr {
    key: "_class"
    value {
      list {
        s: "loc:@BatchNorm_3/moving_variance"
      }
    }
  }
  attr {
    key: "container"
    value {
      s: ""
    }
  }
  attr {
    key: "dtype"
    value {
      type: DT_FLOAT
    }
  }
  attr {
    key: "shape"
    value {
      shape {
        dim {
          size: 64
        }
      }
    }
  }
  attr {
    key: "shared_name"
    value {
      s: ""
    }
  }
}
node {
  name: "BatchNorm_3/moving_variance/Assign"
  op: "Assign"
  input: "BatchNorm_3/moving_variance"
  input: "BatchNorm_3/moving_variance/Initializer/ones"
  attr {
    key: "T"
    value {
      type: DT_FLOAT
    }
  }
  attr {
    key: "_class"
    value {
      list {
        s: "loc:@BatchNorm_3/moving_variance"
      }
    }
  }
  attr {
    key: "use_locking"
    value {
      b: true
    }
  }
  attr {
    key: "validate_shape"
    value {
      b: true
    }
  }
}
node {
  name: "BatchNorm_3/moving_variance/read"
  op: "Identity"
  input: "BatchNorm_3/moving_variance"
  attr {
    key: "T"
    value {
      type: DT_FLOAT
    }
  }
  attr {
    key: "_class"
    value {
      list {
        s: "loc:@BatchNorm_3/moving_variance"
      }
    }
  }
}
node {
  name: "BatchNorm_3/Const_1"
  op: "Const"
  attr {
    key: "dtype"
    value {
      type: DT_FLOAT
    }
  }
  attr {
    key: "value"
    value {
      tensor {
        dtype: DT_FLOAT
        tensor_shape {
          dim {
          }
        }
      }
    }
  }
}
node {
  name: "BatchNorm_3/Const_2"
  op: "Const"
  attr {
    key: "dtype"
    value {
      type: DT_FLOAT
    }
  }
  attr {
    key: "value"
    value {
      tensor {
        dtype: DT_FLOAT
        tensor_shape {
          dim {
          }
        }
      }
    }
  }
}
node {
  name: "BatchNorm_3/FusedBatchNorm"
  op: "FusedBatchNorm"
  input: "Conv2D_3"
  input: "BatchNorm_3/Const"
  input: "BatchNorm_3/beta/read"
  input: "BatchNorm_3/Const_1"
  input: "BatchNorm_3/Const_2"
  attr {
    key: "T"
    value {
      type: DT_FLOAT
    }
  }
  attr {
    key: "data_format"
    value {
      s: "NHWC"
    }
  }
  attr {
    key: "epsilon"
    value {
      f: 0.0010000000474974513
    }
  }
  attr {
    key: "is_training"
    value {
      b: true
    }
  }
}
node {
  name: "BatchNorm_3/Const_3"
  op: "Const"
  attr {
    key: "dtype"
    value {
      type: DT_FLOAT
    }
  }
  attr {
    key: "value"
    value {
      tensor {
        dtype: DT_FLOAT
        tensor_shape {
        }
        float_val: 0.9990000128746033
      }
    }
  }
}
node {
  name: "BatchNorm_3/AssignMovingAvg/sub/x"
  op: "Const"
  attr {
    key: "_class"
    value {
      list {
        s: "loc:@BatchNorm_3/moving_mean"
      }
    }
  }
  attr {
    key: "dtype"
    value {
      type: DT_FLOAT
    }
  }
  attr {
    key: "value"
    value {
      tensor {
        dtype: DT_FLOAT
        tensor_shape {
        }
        float_val: 1.0
      }
    }
  }
}
node {
  name: "BatchNorm_3/AssignMovingAvg/sub"
  op: "Sub"
  input: "BatchNorm_3/AssignMovingAvg/sub/x"
  input: "BatchNorm_3/Const_3"
  attr {
    key: "T"
    value {
      type: DT_FLOAT
    }
  }
  attr {
    key: "_class"
    value {
      list {
        s: "loc:@BatchNorm_3/moving_mean"
      }
    }
  }
}
node {
  name: "BatchNorm_3/AssignMovingAvg/sub_1"
  op: "Sub"
  input: "BatchNorm_3/moving_mean/read"
  input: "BatchNorm_3/FusedBatchNorm:1"
  attr {
    key: "T"
    value {
      type: DT_FLOAT
    }
  }
  attr {
    key: "_class"
    value {
      list {
        s: "loc:@BatchNorm_3/moving_mean"
      }
    }
  }
}
node {
  name: "BatchNorm_3/AssignMovingAvg/mul"
  op: "Mul"
  input: "BatchNorm_3/AssignMovingAvg/sub_1"
  input: "BatchNorm_3/AssignMovingAvg/sub"
  attr {
    key: "T"
    value {
      type: DT_FLOAT
    }
  }
  attr {
    key: "_class"
    value {
      list {
        s: "loc:@BatchNorm_3/moving_mean"
      }
    }
  }
}
node {
  name: "BatchNorm_3/AssignMovingAvg"
  op: "AssignSub"
  input: "BatchNorm_3/moving_mean"
  input: "BatchNorm_3/AssignMovingAvg/mul"
  attr {
    key: "T"
    value {
      type: DT_FLOAT
    }
  }
  attr {
    key: "_class"
    value {
      list {
        s: "loc:@BatchNorm_3/moving_mean"
      }
    }
  }
  attr {
    key: "use_locking"
    value {
      b: false
    }
  }
}
node {
  name: "BatchNorm_3/AssignMovingAvg_1/sub/x"
  op: "Const"
  attr {
    key: "_class"
    value {
      list {
        s: "loc:@BatchNorm_3/moving_variance"
      }
    }
  }
  attr {
    key: "dtype"
    value {
      type: DT_FLOAT
    }
  }
  attr {
    key: "value"
    value {
      tensor {
        dtype: DT_FLOAT
        tensor_shape {
        }
        float_val: 1.0
      }
    }
  }
}
node {
  name: "BatchNorm_3/AssignMovingAvg_1/sub"
  op: "Sub"
  input: "BatchNorm_3/AssignMovingAvg_1/sub/x"
  input: "BatchNorm_3/Const_3"
  attr {
    key: "T"
    value {
      type: DT_FLOAT
    }
  }
  attr {
    key: "_class"
    value {
      list {
        s: "loc:@BatchNorm_3/moving_variance"
      }
    }
  }
}
node {
  name: "BatchNorm_3/AssignMovingAvg_1/sub_1"
  op: "Sub"
  input: "BatchNorm_3/moving_variance/read"
  input: "BatchNorm_3/FusedBatchNorm:2"
  attr {
    key: "T"
    value {
      type: DT_FLOAT
    }
  }
  attr {
    key: "_class"
    value {
      list {
        s: "loc:@BatchNorm_3/moving_variance"
      }
    }
  }
}
node {
  name: "BatchNorm_3/AssignMovingAvg_1/mul"
  op: "Mul"
  input: "BatchNorm_3/AssignMovingAvg_1/sub_1"
  input: "BatchNorm_3/AssignMovingAvg_1/sub"
  attr {
    key: "T"
    value {
      type: DT_FLOAT
    }
  }
  attr {
    key: "_class"
    value {
      list {
        s: "loc:@BatchNorm_3/moving_variance"
      }
    }
  }
}
node {
  name: "BatchNorm_3/AssignMovingAvg_1"
  op: "AssignSub"
  input: "BatchNorm_3/moving_variance"
  input: "BatchNorm_3/AssignMovingAvg_1/mul"
  attr {
    key: "T"
    value {
      type: DT_FLOAT
    }
  }
  attr {
    key: "_class"
    value {
      list {
        s: "loc:@BatchNorm_3/moving_variance"
      }
    }
  }
  attr {
    key: "use_locking"
    value {
      b: false
    }
  }
}
node {
  name: "MaxPoolWithArgmax"
  op: "MaxPoolWithArgmax"
  input: "add_1"
  attr {
    key: "T"
    value {
      type: DT_FLOAT
    }
  }
  attr {
    key: "Targmax"
    value {
      type: DT_INT64
    }
  }
  attr {
    key: "ksize"
    value {
      list {
        i: 1
        i: 2
        i: 2
        i: 1
      }
    }
  }
  attr {
    key: "padding"
    value {
      s: "SAME"
    }
  }
  attr {
    key: "strides"
    value {
      list {
        i: 1
        i: 2
        i: 2
        i: 1
      }
    }
  }
}
node {
  name: "Const"
  op: "Const"
  attr {
    key: "dtype"
    value {
      type: DT_INT32
    }
  }
  attr {
    key: "value"
    value {
      tensor {
        dtype: DT_INT32
        tensor_shape {
          dim {
            size: 4
          }
          dim {
            size: 2
          }
        }
        tensor_content: "…"
      }
    }
  }
}
node {
  name: "Pad"
  op: "Pad"
  input: "MaxPoolWithArgmax"
  input: "Const"
  attr {
    key: "T"
    value {
      type: DT_FLOAT
    }
  }
  attr {
    key: "Tpaddings"
    value {
      type: DT_INT32
    }
  }
}
node {
  name: "add_5"
  op: "Add"
  input: "BatchNorm_3/FusedBatchNorm"
  input: "Pad"
  attr {
    key: "T"
    value {
      type: DT_FLOAT
    }
  }
}
node {
  name: "bottleneck_1_0/output/alpha/Initializer/Const"
  op: "Const"
  attr {
    key: "_class"
    value {
      list {
        s: "loc:@bottleneck_1_0/output/alpha"
      }
    }
  }
  attr {
    key: "dtype"
    value {
      type: DT_FLOAT
    }
  }
  attr {
    key: "value"
    value {
      tensor {
        dtype: DT_FLOAT
        tensor_shape {
          dim {
            size: 1
          }
        }
        float_val: 0.0
      }
    }
  }
}
node {
  name: "bottleneck_1_0/output/alpha"
  op: "VariableV2"
  attr {
    key: "_class"
    value {
      list {
        s: "loc:@bottleneck_1_0/output/alpha"
      }
    }
  }
  attr {
    key: "container"
    value {
      s: ""
    }
  }
  attr {
    key: "dtype"
    value {
      type: DT_FLOAT
    }
  }
  attr {
    key: "shape"
    value {
      shape {
        dim {
          size: 1
        }
      }
    }
  }
  attr {
    key: "shared_name"
    value {
      s: ""
    }
  }
}
node {
  name: "bottleneck_1_0/output/alpha/Assign"
  op: "Assign"
  input: "bottleneck_1_0/output/alpha"
  input: "bottleneck_1_0/output/alpha/Initializer/Const"
  attr {
    key: "T"
    value {
      type: DT_FLOAT
    }
  }
  attr {
    key: "_class"
    value {
      list {
        s: "loc:@bottleneck_1_0/output/alpha"
      }
    }
  }
  attr {
    key: "use_locking"
    value {
      b: true
    }
  }
  attr {
    key: "validate_shape"
    value {
      b: true
    }
  }
}
node {
  name: "bottleneck_1_0/output/alpha/read"
  op: "Identity"
  input: "bottleneck_1_0/output/alpha"
  attr {
    key: "T"
    value {
      type: DT_FLOAT
    }
  }
  attr {
    key: "_class"
    value {
      list {
        s: "loc:@bottleneck_1_0/output/alpha"
      }
    }
  }
}
node {
  name: "Relu_3"
  op: "Relu"
  input: "add_5"
  attr {
    key: "T"
    value {
      type: DT_FLOAT
    }
  }
}
node {
  name: "Abs_3"
  op: "Abs"
  input: "add_5"
  attr {
    key: "T"
    value {
      type: DT_FLOAT
    }
  }
}
node {
  name: "sub_3"
  op: "Sub"
  input: "add_5"
  input: "Abs_3"
  attr {
    key: "T"
    value {
      type: DT_FLOAT
    }
  }
}
node {
  name: "mul_12"
  op: "Mul"
  input: "bottleneck_1_0/output/alpha/read"
  input: "sub_3"
  attr {
    key: "T"
    value {
      type: DT_FLOAT
    }
  }
}
node {
  name: "mul_13/y"
  op: "Const"
  attr {
    key: "dtype"
    value {
      type: DT_FLOAT
    }
  }
  attr {
    key: "value"
    value {
      tensor {
        dtype: DT_FLOAT
        tensor_shape {
        }
        float_val: 0.5
      }
    }
  }
}
node {
  name: "mul_13"
  op: "Mul"
  input: "mul_12"
  input: "mul_13/y"
  attr {
    key: "T"
    value {
      type: DT_FLOAT
    }
  }
}
node {
  name: "add_6"
  op: "Add"
  input: "Relu_3"
  input: "mul_13"
  attr {
    key: "T"
    value {
      type: DT_FLOAT
    }
  }
}
node {
  name: "bottleneck_1_1/W_proj/Initializer/random_uniform/shape"
  op: "Const"
  attr {
    key: "_class"
    value {
      list {
        s: "loc:@bottleneck_1_1/W_proj"
      }
    }
  }
  attr {
    key: "dtype"
    value {
      type: DT_INT32
    }
  }
  attr {
    key: "value"
    value {
      tensor {
        dtype: DT_INT32
        tensor_shape {
          dim {
            size: 4
          }
        }
        tensor_content: "\001\000\000\000\001\000\000\000@\000\000\000\020\000\000\000"
      }
    }
  }
}
node {
  name: "bottleneck_1_1/W_proj/Initializer/random_uniform/min"
  op: "Const"
  attr {
    key: "_class"
    value {
      list {
        s: "loc:@bottleneck_1_1/W_proj"
      }
    }
  }
  attr {
    key: "dtype"
    value {
      type: DT_FLOAT
    }
  }
  attr {
    key: "value"
    value {
      tensor {
        dtype: DT_FLOAT
        tensor_shape {
        }
        float_val: -0.273861289024353
      }
    }
  }
}
node {
  name: "bottleneck_1_1/W_proj/Initializer/random_uniform/max"
  op: "Const"
  attr {
    key: "_class"
    value {
      list {
        s: "loc:@bottleneck_1_1/W_proj"
      }
    }
  }
  attr {
    key: "dtype"
    value {
      type: DT_FLOAT
    }
  }
  attr {
    key: "value"
    value {
      tensor {
        dtype: DT_FLOAT
        tensor_shape {
        }
        float_val: 0.273861289024353
      }
    }
  }
}
node {
  name: "bottleneck_1_1/W_proj/Initializer/random_uniform/RandomUniform"
  op: "RandomUniform"
  input: "bottleneck_1_1/W_proj/Initializer/random_uniform/shape"
  attr {
    key: "T"
    value {
      type: DT_INT32
    }
  }
  attr {
    key: "_class"
    value {
      list {
        s: "loc:@bottleneck_1_1/W_proj"
      }
    }
  }
  attr {
    key: "dtype"
    value {
      type: DT_FLOAT
    }
  }
  attr {
    key: "seed"
    value {
      i: 0
    }
  }
  attr {
    key: "seed2"
    value {
      i: 0
    }
  }
}
node {
  name: "bottleneck_1_1/W_proj/Initializer/random_uniform/sub"
  op: "Sub"
  input: "bottleneck_1_1/W_proj/Initializer/random_uniform/max"
  input: "bottleneck_1_1/W_proj/Initializer/random_uniform/min"
  attr {
    key: "T"
    value {
      type: DT_FLOAT
    }
  }
  attr {
    key: "_class"
    value {
      list {
        s: "loc:@bottleneck_1_1/W_proj"
      }
    }
  }
}
node {
  name: "bottleneck_1_1/W_proj/Initializer/random_uniform/mul"
  op: "Mul"
  input: "bottleneck_1_1/W_proj/Initializer/random_uniform/RandomUniform"
  input: "bottleneck_1_1/W_proj/Initializer/random_uniform/sub"
  attr {
    key: "T"
    value {
      type: DT_FLOAT
    }
  }
  attr {
    key: "_class"
    value {
      list {
        s: "loc:@bottleneck_1_1/W_proj"
      }
    }
  }
}
node {
  name: "bottleneck_1_1/W_proj/Initializer/random_uniform"
  op: "Add"
  input: "bottleneck_1_1/W_proj/Initializer/random_uniform/mul"
  input: "bottleneck_1_1/W_proj/Initializer/random_uniform/min"
  attr {
    key: "T"
    value {
      type: DT_FLOAT
    }
  }
  attr {
    key: "_class"
    value {
      list {
        s: "loc:@bottleneck_1_1/W_proj"
      }
    }
  }
}
node {
  name: "bottleneck_1_1/W_proj"
  op: "VariableV2"
  attr {
    key: "_class"
    value {
      list {
        s: "loc:@bottleneck_1_1/W_proj"
      }
    }
  }
  attr {
    key: "container"
    value {
      s: ""
    }
  }
  attr {
    key: "dtype"
    value {
      type: DT_FLOAT
    }
  }
  attr {
    key: "shape"
    value {
      shape {
        dim {
          size: 1
        }
        dim {
          size: 1
        }
        dim {
          size: 64
        }
        dim {
          size: 16
        }
      }
    }
  }
  attr {
    key: "shared_name"
    value {
      s: ""
    }
  }
}
node {
  name: "bottleneck_1_1/W_proj/Assign"
  op: "Assign"
  input: "bottleneck_1_1/W_proj"
  input: "bottleneck_1_1/W_proj/Initializer/random_uniform"
  attr {
    key: "T"
    value {
      type: DT_FLOAT
    }
  }
  attr {
    key: "_class"
    value {
      list {
        s: "loc:@bottleneck_1_1/W_proj"
      }
    }
  }
  attr {
    key: "use_locking"
    value {
      b: true
    }
  }
  attr {
    key: "validate_shape"
    value {
      b: true
    }
  }
}
node {
  name: "bottleneck_1_1/W_proj/read"
  op: "Identity"
  input: "bottleneck_1_1/W_proj"
  attr {
    key: "T"
    value {
      type: DT_FLOAT
    }
  }
  attr {
    key: "_class"
    value {
      list {
        s: "loc:@bottleneck_1_1/W_proj"
      }
    }
  }
}
node {
  name: "L2Loss_6"
  op: "L2Loss"
  input: "bottleneck_1_1/W_proj/read"
  attr {
    key: "T"
    value {
      type: DT_FLOAT
    }
  }
}
node {
  name: "mul_14/x"
  op: "Const"
  attr {
    key: "dtype"
    value {
      type: DT_FLOAT
    }
  }
  attr {
    key: "value"
    value {
      tensor {
        dtype: DT_FLOAT
        tensor_shape {
        }
        float_val: 0.00019999999494757503
      }
    }
  }
}
node {
  name: "mul_14"
  op: "Mul"
  input: "mul_14/x"
  input: "L2Loss_6"
  attr {
    key: "T"
    value {
      type: DT_FLOAT
    }
  }
}
node {
  name: "Conv2D_4"
  op: "Conv2D"
  input: "add_6"
  input: "bottleneck_1_1/W_proj/read"
  attr {
    key: "T"
    value {
      type: DT_FLOAT
    }
  }
  attr {
    key: "data_format"
    value {
      s: "NHWC"
    }
  }
  attr {
    key: "dilations"
    value {
      list {
        i: 1
        i: 1
        i: 1
        i: 1
      }
    }
  }
  attr {
    key: "padding"
    value {
      s: "VALID"
    }
  }
  attr {
    key: "strides"
    value {
      list {
        i: 1
        i: 1
        i: 1
        i: 1
      }
    }
  }
  attr {
    key: "use_cudnn_on_gpu"
    value {
      b: true
    }
  }
}
node {
  name: "BatchNorm_4/Const"
  op: "Const"
  attr {
    key: "dtype"
    value {
      type: DT_FLOAT
    }
  }
  attr {
    key: "value"
    value {
      tensor {
        dtype: DT_FLOAT
        tensor_shape {
          dim {
            size: 16
          }
        }
        float_val: 1.0
      }
    }
  }
}
node {
  name: "BatchNorm_4/beta/Initializer/zeros"
  op: "Const"
  attr {
    key: "_class"
    value {
      list {
        s: "loc:@BatchNorm_4/beta"
      }
    }
  }
  attr {
    key: "dtype"
    value {
      type: DT_FLOAT
    }
  }
  attr {
    key: "value"
    value {
      tensor {
        dtype: DT_FLOAT
        tensor_shape {
          dim {
            size: 16
          }
        }
        float_val: 0.0
      }
    }
  }
}
node {
  name: "BatchNorm_4/beta"
  op: "VariableV2"
  attr {
    key: "_class"
    value {
      list {
        s: "loc:@BatchNorm_4/beta"
      }
    }
  }
  attr {
    key: "container"
    value {
      s: ""
    }
  }
  attr {
    key: "dtype"
    value {
      type: DT_FLOAT
    }
  }
  attr {
    key: "shape"
    value {
      shape {
        dim {
          size: 16
        }
      }
    }
  }
  attr {
    key: "shared_name"
    value {
      s: ""
    }
  }
}
node {
  name: "BatchNorm_4/beta/Assign"
  op: "Assign"
  input: "BatchNorm_4/beta"
  input: "BatchNorm_4/beta/Initializer/zeros"
  attr {
    key: "T"
    value {
      type: DT_FLOAT
    }
  }
  attr {
    key: "_class"
    value {
      list {
        s: "loc:@BatchNorm_4/beta"
      }
    }
  }
  attr {
    key: "use_locking"
    value {
      b: true
    }
  }
  attr {
    key: "validate_shape"
    value {
      b: true
    }
  }
}
node {
  name: "BatchNorm_4/beta/read"
  op: "Identity"
  input: "BatchNorm_4/beta"
  attr {
    key: "T"
    value {
      type: DT_FLOAT
    }
  }
  attr {
    key: "_class"
    value {
      list {
        s: "loc:@BatchNorm_4/beta"
      }
    }
  }
}
node {
  name: "BatchNorm_4/moving_mean/Initializer/zeros"
  op: "Const"
  attr {
    key: "_class"
    value {
      list {
        s: "loc:@BatchNorm_4/moving_mean"
      }
    }
  }
  attr {
    key: "dtype"
    value {
      type: DT_FLOAT
    }
  }
  attr {
    key: "value"
    value {
      tensor {
        dtype: DT_FLOAT
        tensor_shape {
          dim {
            size: 16
          }
        }
        float_val: 0.0
      }
    }
  }
}
node {
  name: "BatchNorm_4/moving_mean"
  op: "VariableV2"
  attr {
    key: "_class"
    value {
      list {
        s: "loc:@BatchNorm_4/moving_mean"
      }
    }
  }
  attr {
    key: "container"
    value {
      s: ""
    }
  }
  attr {
    key: "dtype"
    value {
      type: DT_FLOAT
    }
  }
  attr {
    key: "shape"
    value {
      shape {
        dim {
          size: 16
        }
      }
    }
  }
  attr {
    key: "shared_name"
    value {
      s: ""
    }
  }
}
node {
  name: "BatchNorm_4/moving_mean/Assign"
  op: "Assign"
  input: "BatchNorm_4/moving_mean"
  input: "BatchNorm_4/moving_mean/Initializer/zeros"
  attr {
    key: "T"
    value {
      type: DT_FLOAT
    }
  }
  attr {
    key: "_class"
    value {
      list {
        s: "loc:@BatchNorm_4/moving_mean"
      }
    }
  }
  attr {
    key: "use_locking"
    value {
      b: true
    }
  }
  attr {
    key: "validate_shape"
    value {
      b: true
    }
  }
}
node {
  name: "BatchNorm_4/moving_mean/read"
  op: "Identity"
  input: "BatchNorm_4/moving_mean"
  attr {
    key: "T"
    value {
      type: DT_FLOAT
    }
  }
  attr {
    key: "_class"
    value {
      list {
        s: "loc:@BatchNorm_4/moving_mean"
      }
    }
  }
}
node {
  name: "BatchNorm_4/moving_variance/Initializer/ones"
  op: "Const"
  attr {
    key: "_class"
    value {
      list {
        s: "loc:@BatchNorm_4/moving_variance"
      }
    }
  }
  attr {
    key: "dtype"
    value {
      type: DT_FLOAT
    }
  }
  attr {
    key: "value"
    value {
      tensor {
        dtype: DT_FLOAT
        tensor_shape {
          dim {
            size: 16
          }
        }
        float_val: 1.0
      }
    }
  }
}
node {
  name: "BatchNorm_4/moving_variance"
  op: "VariableV2"
  attr {
    key: "_class"
    value {
      list {
        s: "loc:@BatchNorm_4/moving_variance"
      }
    }
  }
  attr {
    key: "container"
    value {
      s: ""
    }
  }
  attr {
    key: "dtype"
    value {
      type: DT_FLOAT
    }
  }
  attr {
    key: "shape"
    value {
      shape {
        dim {
          size: 16
        }
      }
    }
  }
  attr {
    key: "shared_name"
    value {
      s: ""
    }
  }
}
node {
  name: "BatchNorm_4/moving_variance/Assign"
  op: "Assign"
  input: "BatchNorm_4/moving_variance"
  input: "BatchNorm_4/moving_variance/Initializer/ones"
  attr {
    key: "T"
    value {
      type: DT_FLOAT
    }
  }
  attr {
    key: "_class"
    value {
      list {
        s: "loc:@BatchNorm_4/moving_variance"
      }
    }
  }
  attr {
    key: "use_locking"
    value {
      b: true
    }
  }
  attr {
    key: "validate_shape"
    value {
      b: true
    }
  }
}
node {
  name: "BatchNorm_4/moving_variance/read"
  op: "Identity"
  input: "BatchNorm_4/moving_variance"
  attr {
    key: "T"
    value {
      type: DT_FLOAT
    }
  }
  attr {
    key: "_class"
    value {
      list {
        s: "loc:@BatchNorm_4/moving_variance"
      }
    }
  }
}
node {
  name: "BatchNorm_4/Const_1"
  op: "Const"
  attr {
    key: "dtype"
    value {
      type: DT_FLOAT
    }
  }
  attr {
    key: "value"
    value {
      tensor {
        dtype: DT_FLOAT
        tensor_shape {
          dim {
          }
        }
      }
    }
  }
}
node {
  name: "BatchNorm_4/Const_2"
  op: "Const"
  attr {
    key: "dtype"
    value {
      type: DT_FLOAT
    }
  }
  attr {
    key: "value"
    value {
      tensor {
        dtype: DT_FLOAT
        tensor_shape {
          dim {
          }
        }
      }
    }
  }
}
node {
  name: "BatchNorm_4/FusedBatchNorm"
  op: "FusedBatchNorm"
  input: "Conv2D_4"
  input: "BatchNorm_4/Const"
  input: "BatchNorm_4/beta/read"
  input: "BatchNorm_4/Const_1"
  input: "BatchNorm_4/Const_2"
  attr {
    key: "T"
    value {
      type: DT_FLOAT
    }
  }
  attr {
    key: "data_format"
    value {
      s: "NHWC"
    }
  }
  attr {
    key: "epsilon"
    value {
      f: 0.0010000000474974513
    }
  }
  attr {
    key: "is_training"
    value {
      b: true
    }
  }
}
node {
  name: "BatchNorm_4/Const_3"
  op: "Const"
  attr {
    key: "dtype"
    value {
      type: DT_FLOAT
    }
  }
  attr {
    key: "value"
    value {
      tensor {
        dtype: DT_FLOAT
        tensor_shape {
        }
        float_val: 0.9990000128746033
      }
    }
  }
}
node {
  name: "BatchNorm_4/AssignMovingAvg/sub/x"
  op: "Const"
  attr {
    key: "_class"
    value {
      list {
        s: "loc:@BatchNorm_4/moving_mean"
      }
    }
  }
  attr {
    key: "dtype"
    value {
      type: DT_FLOAT
    }
  }
  attr {
    key: "value"
    value {
      tensor {
        dtype: DT_FLOAT
        tensor_shape {
        }
        float_val: 1.0
      }
    }
  }
}
node {
  name: "BatchNorm_4/AssignMovingAvg/sub"
  op: "Sub"
  input: "BatchNorm_4/AssignMovingAvg/sub/x"
  input: "BatchNorm_4/Const_3"
  attr {
    key: "T"
    value {
      type: DT_FLOAT
    }
  }
  attr {
    key: "_class"
    value {
      list {
        s: "loc:@BatchNorm_4/moving_mean"
      }
    }
  }
}
node {
  name: "BatchNorm_4/AssignMovingAvg/sub_1"
  op: "Sub"
  input: "BatchNorm_4/moving_mean/read"
  input: "BatchNorm_4/FusedBatchNorm:1"
  attr {
    key: "T"
    value {
      type: DT_FLOAT
    }
  }
  attr {
    key: "_class"
    value {
      list {
        s: "loc:@BatchNorm_4/moving_mean"
      }
    }
  }
}
node {
  name: "BatchNorm_4/AssignMovingAvg/mul"
  op: "Mul"
  input: "BatchNorm_4/AssignMovingAvg/sub_1"
  input: "BatchNorm_4/AssignMovingAvg/sub"
  attr {
    key: "T"
    value {
      type: DT_FLOAT
    }
  }
  attr {
    key: "_class"
    value {
      list {
        s: "loc:@BatchNorm_4/moving_mean"
      }
    }
  }
}
node {
  name: "BatchNorm_4/AssignMovingAvg"
  op: "AssignSub"
  input: "BatchNorm_4/moving_mean"
  input: "BatchNorm_4/AssignMovingAvg/mul"
  attr {
    key: "T"
    value {
      type: DT_FLOAT
    }
  }
  attr {
    key: "_class"
    value {
      list {
        s: "loc:@BatchNorm_4/moving_mean"
      }
    }
  }
  attr {
    key: "use_locking"
    value {
      b: false
    }
  }
}
node {
  name: "BatchNorm_4/AssignMovingAvg_1/sub/x"
  op: "Const"
  attr {
    key: "_class"
    value {
      list {
        s: "loc:@BatchNorm_4/moving_variance"
      }
    }
  }
  attr {
    key: "dtype"
    value {
      type: DT_FLOAT
    }
  }
  attr {
    key: "value"
    value {
      tensor {
        dtype: DT_FLOAT
        tensor_shape {
        }
        float_val: 1.0
      }
    }
  }
}
node {
  name: "BatchNorm_4/AssignMovingAvg_1/sub"
  op: "Sub"
  input: "BatchNorm_4/AssignMovingAvg_1/sub/x"
  input: "BatchNorm_4/Const_3"
  attr {
    key: "T"
    value {
      type: DT_FLOAT
    }
  }
  attr {
    key: "_class"
    value {
      list {
        s: "loc:@BatchNorm_4/moving_variance"
      }
    }
  }
}
node {
  name: "BatchNorm_4/AssignMovingAvg_1/sub_1"
  op: "Sub"
  input: "BatchNorm_4/moving_variance/read"
  input: "BatchNorm_4/FusedBatchNorm:2"
  attr {
    key: "T"
    value {
      type: DT_FLOAT
    }
  }
  attr {
    key: "_class"
    value {
      list {
        s: "loc:@BatchNorm_4/moving_variance"
      }
    }
  }
}
node {
  name: "BatchNorm_4/AssignMovingAvg_1/mul"
  op: "Mul"
  input: "BatchNorm_4/AssignMovingAvg_1/sub_1"
  input: "BatchNorm_4/AssignMovingAvg_1/sub"
  attr {
    key: "T"
    value {
      type: DT_FLOAT
    }
  }
  attr {
    key: "_class"
    value {
      list {
        s: "loc:@BatchNorm_4/moving_variance"
      }
    }
  }
}
node {
  name: "BatchNorm_4/AssignMovingAvg_1"
  op: "AssignSub"
  input: "BatchNorm_4/moving_variance"
  input: "BatchNorm_4/AssignMovingAvg_1/mul"
  attr {
    key: "T"
    value {
      type: DT_FLOAT
    }
  }
  attr {
    key: "_class"
    value {
      list {
        s: "loc:@BatchNorm_4/moving_variance"
      }
    }
  }
  attr {
    key: "use_locking"
    value {
      b: false
    }
  }
}
node {
  name: "bottleneck_1_1/proj/alpha/Initializer/Const"
  op: "Const"
  attr {
    key: "_class"
    value {
      list {
        s: "loc:@bottleneck_1_1/proj/alpha"
      }
    }
  }
  attr {
    key: "dtype"
    value {
      type: DT_FLOAT
    }
  }
  attr {
    key: "value"
    value {
      tensor {
        dtype: DT_FLOAT
        tensor_shape {
          dim {
            size: 1
          }
        }
        float_val: 0.0
      }
    }
  }
}
node {
  name: "bottleneck_1_1/proj/alpha"
  op: "VariableV2"
  attr {
    key: "_class"
    value {
      list {
        s: "loc:@bottleneck_1_1/proj/alpha"
      }
    }
  }
  attr {
    key: "container"
    value {
      s: ""
    }
  }
  attr {
    key: "dtype"
    value {
      type: DT_FLOAT
    }
  }
  attr {
    key: "shape"
    value {
      shape {
        dim {
          size: 1
        }
      }
    }
  }
  attr {
    key: "shared_name"
    value {
      s: ""
    }
  }
}
node {
  name: "bottleneck_1_1/proj/alpha/Assign"
  op: "Assign"
  input: "bottleneck_1_1/proj/alpha"
  input: "bottleneck_1_1/proj/alpha/Initializer/Const"
  attr {
    key: "T"
    value {
      type: DT_FLOAT
    }
  }
  attr {
    key: "_class"
    value {
      list {
        s: "loc:@bottleneck_1_1/proj/alpha"
      }
    }
  }
  attr {
    key: "use_locking"
    value {
      b: true
    }
  }
  attr {
    key: "validate_shape"
    value {
      b: true
    }
  }
}
node {
  name: "bottleneck_1_1/proj/alpha/read"
  op: "Identity"
  input: "bottleneck_1_1/proj/alpha"
  attr {
    key: "T"
    value {
      type: DT_FLOAT
    }
  }
  attr {
    key: "_class"
    value {
      list {
        s: "loc:@bottleneck_1_1/proj/alpha"
      }
    }
  }
}
node {
  name: "Relu_4"
  op: "Relu"
  input: "BatchNorm_4/FusedBatchNorm"
  attr {
    key: "T"
    value {
      type: DT_FLOAT
    }
  }
}
node {
  name: "Abs_4"
  op: "Abs"
  input: "BatchNorm_4/FusedBatchNorm"
  attr {
    key: "T"
    value {
      type: DT_FLOAT
    }
  }
}
node {
  name: "sub_4"
  op: "Sub"
  input: "BatchNorm_4/FusedBatchNorm"
  input: "Abs_4"
  attr {
    key: "T"
    value {
      type: DT_FLOAT
    }
  }
}
node {
  name: "mul_15"
  op: "Mul"
  input: "bottleneck_1_1/proj/alpha/read"
  input: "sub_4"
  attr {
    key: "T"
    value {
      type: DT_FLOAT
    }
  }
}
node {
  name: "mul_16/y"
  op: "Const"
  attr {
    key: "dtype"
    value {
      type: DT_FLOAT
    }
  }
  attr {
    key: "value"
    value {
      tensor {
        dtype: DT_FLOAT
        tensor_shape {
        }
        float_val: 0.5
      }
    }
  }
}
node {
  name: "mul_16"
  op: "Mul"
  input: "mul_15"
  input: "mul_16/y"
  attr {
    key: "T"
    value {
      type: DT_FLOAT
    }
  }
}
node {
  name: "add_7"
  op: "Add"
  input: "Relu_4"
  input: "mul_16"
  attr {
    key: "T"
    value {
      type: DT_FLOAT
    }
  }
}
node {
  name: "bottleneck_1_1/W_conv/Initializer/random_uniform/shape"
  op: "Const"
  attr {
    key: "_class"
    value {
      list {
        s: "loc:@bottleneck_1_1/W_conv"
      }
    }
  }
  attr {
    key: "dtype"
    value {
      type: DT_INT32
    }
  }
  attr {
    key: "value"
    value {
      tensor {
        dtype: DT_INT32
        tensor_shape {
          dim {
            size: 4
          }
        }
        tensor_content: "\003\000\000\000\003\000\000\000\020\000\000\000\020\000\000\000"
      }
    }
  }
}
node {
  name: "bottleneck_1_1/W_conv/Initializer/random_uniform/min"
  op: "Const"
  attr {
    key: "_class"
    value {
      list {
        s: "loc:@bottleneck_1_1/W_conv"
      }
    }
  }
  attr {
    key: "dtype"
    value {
      type: DT_FLOAT
    }
  }
  attr {
    key: "value"
    value {
      tensor {
        dtype: DT_FLOAT
        tensor_shape {
        }
        float_val: -0.14433756470680237
      }
    }
  }
}
node {
  name: "bottleneck_1_1/W_conv/Initializer/random_uniform/max"
  op: "Const"
  attr {
    key: "_class"
    value {
      list {
        s: "loc:@bottleneck_1_1/W_conv"
      }
    }
  }
  attr {
    key: "dtype"
    value {
      type: DT_FLOAT
    }
  }
  attr {
    key: "value"
    value {
      tensor {
        dtype: DT_FLOAT
        tensor_shape {
        }
        float_val: 0.14433756470680237
      }
    }
  }
}
node {
  name: "bottleneck_1_1/W_conv/Initializer/random_uniform/RandomUniform"
  op: "RandomUniform"
  input: "bottleneck_1_1/W_conv/Initializer/random_uniform/shape"
  attr {
    key: "T"
    value {
      type: DT_INT32
    }
  }
  attr {
    key: "_class"
    value {
      list {
        s: "loc:@bottleneck_1_1/W_conv"
      }
    }
  }
  attr {
    key: "dtype"
    value {
      type: DT_FLOAT
    }
  }
  attr {
    key: "seed"
    value {
      i: 0
    }
  }
  attr {
    key: "seed2"
    value {
      i: 0
    }
  }
}
node {
  name: "bottleneck_1_1/W_conv/Initializer/random_uniform/sub"
  op: "Sub"
  input: "bottleneck_1_1/W_conv/Initializer/random_uniform/max"
  input: "bottleneck_1_1/W_conv/Initializer/random_uniform/min"
  attr {
    key: "T"
    value {
      type: DT_FLOAT
    }
  }
  attr {
    key: "_class"
    value {
      list {
        s: "loc:@bottleneck_1_1/W_conv"
      }
    }
  }
}
node {
  name: "bottleneck_1_1/W_conv/Initializer/random_uniform/mul"
  op: "Mul"
  input: "bottleneck_1_1/W_conv/Initializer/random_uniform/RandomUniform"
  input: "bottleneck_1_1/W_conv/Initializer/random_uniform/sub"
  attr {
    key: "T"
    value {
      type: DT_FLOAT
    }
  }
  attr {
    key: "_class"
    value {
      list {
        s: "loc:@bottleneck_1_1/W_conv"
      }
    }
  }
}
node {
  name: "bottleneck_1_1/W_conv/Initializer/random_uniform"
  op: "Add"
  input: "bottleneck_1_1/W_conv/Initializer/random_uniform/mul"
  input: "bottleneck_1_1/W_conv/Initializer/random_uniform/min"
  attr {
    key: "T"
    value {
      type: DT_FLOAT
    }
  }
  attr {
    key: "_class"
    value {
      list {
        s: "loc:@bottleneck_1_1/W_conv"
      }
    }
  }
}
node {
  name: "bottleneck_1_1/W_conv"
  op: "VariableV2"
  attr {
    key: "_class"
    value {
      list {
        s: "loc:@bottleneck_1_1/W_conv"
      }
    }
  }
  attr {
    key: "container"
    value {
      s: ""
    }
  }
  attr {
    key: "dtype"
    value {
      type: DT_FLOAT
    }
  }
  attr {
    key: "shape"
    value {
      shape {
        dim {
          size: 3
        }
        dim {
          size: 3
        }
        dim {
          size: 16
        }
        dim {
          size: 16
        }
      }
    }
  }
  attr {
    key: "shared_name"
    value {
      s: ""
    }
  }
}
node {
  name: "bottleneck_1_1/W_conv/Assign"
  op: "Assign"
  input: "bottleneck_1_1/W_conv"
  input: "bottleneck_1_1/W_conv/Initializer/random_uniform"
  attr {
    key: "T"
    value {
      type: DT_FLOAT
    }
  }
  attr {
    key: "_class"
    value {
      list {
        s: "loc:@bottleneck_1_1/W_conv"
      }
    }
  }
  attr {
    key: "use_locking"
    value {
      b: true
    }
  }
  attr {
    key: "validate_shape"
    value {
      b: true
    }
  }
}
node {
  name: "bottleneck_1_1/W_conv/read"
  op: "Identity"
  input: "bottleneck_1_1/W_conv"
  attr {
    key: "T"
    value {
      type: DT_FLOAT
    }
  }
  attr {
    key: "_class"
    value {
      list {
        s: "loc:@bottleneck_1_1/W_conv"
      }
    }
  }
}
node {
  name: "L2Loss_7"
  op: "L2Loss"
  input: "bottleneck_1_1/W_conv/read"
  attr {
    key: "T"
    value {
      type: DT_FLOAT
    }
  }
}
node {
  name: "mul_17/x"
  op: "Const"
  attr {
    key: "dtype"
    value {
      type: DT_FLOAT
    }
  }
  attr {
    key: "value"
    value {
      tensor {
        dtype: DT_FLOAT
        tensor_shape {
        }
        float_val: 0.00019999999494757503
      }
    }
  }
}
node {
  name: "mul_17"
  op: "Mul"
  input: "mul_17/x"
  input: "L2Loss_7"
  attr {
    key: "T"
    value {
      type: DT_FLOAT
    }
  }
}
node {
  name: "bottleneck_1_1/b_conv/Initializer/Const"
  op: "Const"
  attr {
    key: "_class"
    value {
      list {
        s: "loc:@bottleneck_1_1/b_conv"
      }
    }
  }
  attr {
    key: "dtype"
    value {
      type: DT_FLOAT
    }
  }
  attr {
    key: "value"
    value {
      tensor {
        dtype: DT_FLOAT
        tensor_shape {
          dim {
            size: 16
          }
        }
        float_val: 0.0
      }
    }
  }
}
node {
  name: "bottleneck_1_1/b_conv"
  op: "VariableV2"
  attr {
    key: "_class"
    value {
      list {
        s: "loc:@bottleneck_1_1/b_conv"
      }
    }
  }
  attr {
    key: "container"
    value {
      s: ""
    }
  }
  attr {
    key: "dtype"
    value {
      type: DT_FLOAT
    }
  }
  attr {
    key: "shape"
    value {
      shape {
        dim {
          size: 16
        }
      }
    }
  }
  attr {
    key: "shared_name"
    value {
      s: ""
    }
  }
}
node {
  name: "bottleneck_1_1/b_conv/Assign"
  op: "Assign"
  input: "bottleneck_1_1/b_conv"
  input: "bottleneck_1_1/b_conv/Initializer/Const"
  attr {
    key: "T"
    value {
      type: DT_FLOAT
    }
  }
  attr {
    key: "_class"
    value {
      list {
        s: "loc:@bottleneck_1_1/b_conv"
      }
    }
  }
  attr {
    key: "use_locking"
    value {
      b: true
    }
  }
  attr {
    key: "validate_shape"
    value {
      b: true
    }
  }
}
node {
  name: "bottleneck_1_1/b_conv/read"
  op: "Identity"
  input: "bottleneck_1_1/b_conv"
  attr {
    key: "T"
    value {
      type: DT_FLOAT
    }
  }
  attr {
    key: "_class"
    value {
      list {
        s: "loc:@bottleneck_1_1/b_conv"
      }
    }
  }
}
node {
  name: "L2Loss_8"
  op: "L2Loss"
  input: "bottleneck_1_1/b_conv/read"
  attr {
    key: "T"
    value {
      type: DT_FLOAT
    }
  }
}
node {
  name: "mul_18/x"
  op: "Const"
  attr {
    key: "dtype"
    value {
      type: DT_FLOAT
    }
  }
  attr {
    key: "value"
    value {
      tensor {
        dtype: DT_FLOAT
        tensor_shape {
        }
        float_val: 0.00019999999494757503
      }
    }
  }
}
node {
  name: "mul_18"
  op: "Mul"
  input: "mul_18/x"
  input: "L2Loss_8"
  attr {
    key: "T"
    value {
      type: DT_FLOAT
    }
  }
}
node {
  name: "Conv2D_5"
  op: "Conv2D"
  input: "add_7"
  input: "bottleneck_1_1/W_conv/read"
  attr {
    key: "T"
    value {
      type: DT_FLOAT
    }
  }
  attr {
    key: "data_format"
    value {
      s: "NHWC"
    }
  }
  attr {
    key: "dilations"
    value {
      list {
        i: 1
        i: 1
        i: 1
        i: 1
      }
    }
  }
  attr {
    key: "padding"
    value {
      s: "SAME"
    }
  }
  attr {
    key: "strides"
    value {
      list {
        i: 1
        i: 1
        i: 1
        i: 1
      }
    }
  }
  attr {
    key: "use_cudnn_on_gpu"
    value {
      b: true
    }
  }
}
node {
  name: "add_8"
  op: "Add"
  input: "Conv2D_5"
  input: "bottleneck_1_1/b_conv/read"
  attr {
    key: "T"
    value {
      type: DT_FLOAT
    }
  }
}
node {
  name: "BatchNorm_5/Const"
  op: "Const"
  attr {
    key: "dtype"
    value {
      type: DT_FLOAT
    }
  }
  attr {
    key: "value"
    value {
      tensor {
        dtype: DT_FLOAT
        tensor_shape {
          dim {
            size: 16
          }
        }
        float_val: 1.0
      }
    }
  }
}
node {
  name: "BatchNorm_5/beta/Initializer/zeros"
  op: "Const"
  attr {
    key: "_class"
    value {
      list {
        s: "loc:@BatchNorm_5/beta"
      }
    }
  }
  attr {
    key: "dtype"
    value {
      type: DT_FLOAT
    }
  }
  attr {
    key: "value"
    value {
      tensor {
        dtype: DT_FLOAT
        tensor_shape {
          dim {
            size: 16
          }
        }
        float_val: 0.0
      }
    }
  }
}
node {
  name: "BatchNorm_5/beta"
  op: "VariableV2"
  attr {
    key: "_class"
    value {
      list {
        s: "loc:@BatchNorm_5/beta"
      }
    }
  }
  attr {
    key: "container"
    value {
      s: ""
    }
  }
  attr {
    key: "dtype"
    value {
      type: DT_FLOAT
    }
  }
  attr {
    key: "shape"
    value {
      shape {
        dim {
          size: 16
        }
      }
    }
  }
  attr {
    key: "shared_name"
    value {
      s: ""
    }
  }
}
node {
  name: "BatchNorm_5/beta/Assign"
  op: "Assign"
  input: "BatchNorm_5/beta"
  input: "BatchNorm_5/beta/Initializer/zeros"
  attr {
    key: "T"
    value {
      type: DT_FLOAT
    }
  }
  attr {
    key: "_class"
    value {
      list {
        s: "loc:@BatchNorm_5/beta"
      }
    }
  }
  attr {
    key: "use_locking"
    value {
      b: true
    }
  }
  attr {
    key: "validate_shape"
    value {
      b: true
    }
  }
}
node {
  name: "BatchNorm_5/beta/read"
  op: "Identity"
  input: "BatchNorm_5/beta"
  attr {
    key: "T"
    value {
      type: DT_FLOAT
    }
  }
  attr {
    key: "_class"
    value {
      list {
        s: "loc:@BatchNorm_5/beta"
      }
    }
  }
}
node {
  name: "BatchNorm_5/moving_mean/Initializer/zeros"
  op: "Const"
  attr {
    key: "_class"
    value {
      list {
        s: "loc:@BatchNorm_5/moving_mean"
      }
    }
  }
  attr {
    key: "dtype"
    value {
      type: DT_FLOAT
    }
  }
  attr {
    key: "value"
    value {
      tensor {
        dtype: DT_FLOAT
        tensor_shape {
          dim {
            size: 16
          }
        }
        float_val: 0.0
      }
    }
  }
}
node {
  name: "BatchNorm_5/moving_mean"
  op: "VariableV2"
  attr {
    key: "_class"
    value {
      list {
        s: "loc:@BatchNorm_5/moving_mean"
      }
    }
  }
  attr {
    key: "container"
    value {
      s: ""
    }
  }
  attr {
    key: "dtype"
    value {
      type: DT_FLOAT
    }
  }
  attr {
    key: "shape"
    value {
      shape {
        dim {
          size: 16
        }
      }
    }
  }
  attr {
    key: "shared_name"
    value {
      s: ""
    }
  }
}
node {
  name: "BatchNorm_5/moving_mean/Assign"
  op: "Assign"
  input: "BatchNorm_5/moving_mean"
  input: "BatchNorm_5/moving_mean/Initializer/zeros"
  attr {
    key: "T"
    value {
      type: DT_FLOAT
    }
  }
  attr {
    key: "_class"
    value {
      list {
        s: "loc:@BatchNorm_5/moving_mean"
      }
    }
  }
  attr {
    key: "use_locking"
    value {
      b: true
    }
  }
  attr {
    key: "validate_shape"
    value {
      b: true
    }
  }
}
node {
  name: "BatchNorm_5/moving_mean/read"
  op: "Identity"
  input: "BatchNorm_5/moving_mean"
  attr {
    key: "T"
    value {
      type: DT_FLOAT
    }
  }
  attr {
    key: "_class"
    value {
      list {
        s: "loc:@BatchNorm_5/moving_mean"
      }
    }
  }
}
node {
  name: "BatchNorm_5/moving_variance/Initializer/ones"
  op: "Const"
  attr {
    key: "_class"
    value {
      list {
        s: "loc:@BatchNorm_5/moving_variance"
      }
    }
  }
  attr {
    key: "dtype"
    value {
      type: DT_FLOAT
    }
  }
  attr {
    key: "value"
    value {
      tensor {
        dtype: DT_FLOAT
        tensor_shape {
          dim {
            size: 16
          }
        }
        float_val: 1.0
      }
    }
  }
}
node {
  name: "BatchNorm_5/moving_variance"
  op: "VariableV2"
  attr {
    key: "_class"
    value {
      list {
        s: "loc:@BatchNorm_5/moving_variance"
      }
    }
  }
  attr {
    key: "container"
    value {
      s: ""
    }
  }
  attr {
    key: "dtype"
    value {
      type: DT_FLOAT
    }
  }
  attr {
    key: "shape"
    value {
      shape {
        dim {
          size: 16
        }
      }
    }
  }
  attr {
    key: "shared_name"
    value {
      s: ""
    }
  }
}
node {
  name: "BatchNorm_5/moving_variance/Assign"
  op: "Assign"
  input: "BatchNorm_5/moving_variance"
  input: "BatchNorm_5/moving_variance/Initializer/ones"
  attr {
    key: "T"
    value {
      type: DT_FLOAT
    }
  }
  attr {
    key: "_class"
    value {
      list {
        s: "loc:@BatchNorm_5/moving_variance"
      }
    }
  }
  attr {
    key: "use_locking"
    value {
      b: true
    }
  }
  attr {
    key: "validate_shape"
    value {
      b: true
    }
  }
}
node {
  name: "BatchNorm_5/moving_variance/read"
  op: "Identity"
  input: "BatchNorm_5/moving_variance"
  attr {
    key: "T"
    value {
      type: DT_FLOAT
    }
  }
  attr {
    key: "_class"
    value {
      list {
        s: "loc:@BatchNorm_5/moving_variance"
      }
    }
  }
}
node {
  name: "BatchNorm_5/Const_1"
  op: "Const"
  attr {
    key: "dtype"
    value {
      type: DT_FLOAT
    }
  }
  attr {
    key: "value"
    value {
      tensor {
        dtype: DT_FLOAT
        tensor_shape {
          dim {
          }
        }
      }
    }
  }
}
node {
  name: "BatchNorm_5/Const_2"
  op: "Const"
  attr {
    key: "dtype"
    value {
      type: DT_FLOAT
    }
  }
  attr {
    key: "value"
    value {
      tensor {
        dtype: DT_FLOAT
        tensor_shape {
          dim {
          }
        }
      }
    }
  }
}
node {
  name: "BatchNorm_5/FusedBatchNorm"
  op: "FusedBatchNorm"
  input: "add_8"
  input: "BatchNorm_5/Const"
  input: "BatchNorm_5/beta/read"
  input: "BatchNorm_5/Const_1"
  input: "BatchNorm_5/Const_2"
  attr {
    key: "T"
    value {
      type: DT_FLOAT
    }
  }
  attr {
    key: "data_format"
    value {
      s: "NHWC"
    }
  }
  attr {
    key: "epsilon"
    value {
      f: 0.0010000000474974513
    }
  }
  attr {
    key: "is_training"
    value {
      b: true
    }
  }
}
node {
  name: "BatchNorm_5/Const_3"
  op: "Const"
  attr {
    key: "dtype"
    value {
      type: DT_FLOAT
    }
  }
  attr {
    key: "value"
    value {
      tensor {
        dtype: DT_FLOAT
        tensor_shape {
        }
        float_val: 0.9990000128746033
      }
    }
  }
}
node {
  name: "BatchNorm_5/AssignMovingAvg/sub/x"
  op: "Const"
  attr {
    key: "_class"
    value {
      list {
        s: "loc:@BatchNorm_5/moving_mean"
      }
    }
  }
  attr {
    key: "dtype"
    value {
      type: DT_FLOAT
    }
  }
  attr {
    key: "value"
    value {
      tensor {
        dtype: DT_FLOAT
        tensor_shape {
        }
        float_val: 1.0
      }
    }
  }
}
node {
  name: "BatchNorm_5/AssignMovingAvg/sub"
  op: "Sub"
  input: "BatchNorm_5/AssignMovingAvg/sub/x"
  input: "BatchNorm_5/Const_3"
  attr {
    key: "T"
    value {
      type: DT_FLOAT
    }
  }
  attr {
    key: "_class"
    value {
      list {
        s: "loc:@BatchNorm_5/moving_mean"
      }
    }
  }
}
node {
  name: "BatchNorm_5/AssignMovingAvg/sub_1"
  op: "Sub"
  input: "BatchNorm_5/moving_mean/read"
  input: "BatchNorm_5/FusedBatchNorm:1"
  attr {
    key: "T"
    value {
      type: DT_FLOAT
    }
  }
  attr {
    key: "_class"
    value {
      list {
        s: "loc:@BatchNorm_5/moving_mean"
      }
    }
  }
}
node {
  name: "BatchNorm_5/AssignMovingAvg/mul"
  op: "Mul"
  input: "BatchNorm_5/AssignMovingAvg/sub_1"
  input: "BatchNorm_5/AssignMovingAvg/sub"
  attr {
    key: "T"
    value {
      type: DT_FLOAT
    }
  }
  attr {
    key: "_class"
    value {
      list {
        s: "loc:@BatchNorm_5/moving_mean"
      }
    }
  }
}
node {
  name: "BatchNorm_5/AssignMovingAvg"
  op: "AssignSub"
  input: "BatchNorm_5/moving_mean"
  input: "BatchNorm_5/AssignMovingAvg/mul"
  attr {
    key: "T"
    value {
      type: DT_FLOAT
    }
  }
  attr {
    key: "_class"
    value {
      list {
        s: "loc:@BatchNorm_5/moving_mean"
      }
    }
  }
  attr {
    key: "use_locking"
    value {
      b: false
    }
  }
}
node {
  name: "BatchNorm_5/AssignMovingAvg_1/sub/x"
  op: "Const"
  attr {
    key: "_class"
    value {
      list {
        s: "loc:@BatchNorm_5/moving_variance"
      }
    }
  }
  attr {
    key: "dtype"
    value {
      type: DT_FLOAT
    }
  }
  attr {
    key: "value"
    value {
      tensor {
        dtype: DT_FLOAT
        tensor_shape {
        }
        float_val: 1.0
      }
    }
  }
}
node {
  name: "BatchNorm_5/AssignMovingAvg_1/sub"
  op: "Sub"
  input: "BatchNorm_5/AssignMovingAvg_1/sub/x"
  input: "BatchNorm_5/Const_3"
  attr {
    key: "T"
    value {
      type: DT_FLOAT
    }
  }
  attr {
    key: "_class"
    value {
      list {
        s: "loc:@BatchNorm_5/moving_variance"
      }
    }
  }
}
node {
  name: "BatchNorm_5/AssignMovingAvg_1/sub_1"
  op: "Sub"
  input: "BatchNorm_5/moving_variance/read"
  input: "BatchNorm_5/FusedBatchNorm:2"
  attr {
    key: "T"
    value {
      type: DT_FLOAT
    }
  }
  attr {
    key: "_class"
    value {
      list {
        s: "loc:@BatchNorm_5/moving_variance"
      }
    }
  }
}
node {
  name: "BatchNorm_5/AssignMovingAvg_1/mul"
  op: "Mul"
  input: "BatchNorm_5/AssignMovingAvg_1/sub_1"
  input: "BatchNorm_5/AssignMovingAvg_1/sub"
  attr {
    key: "T"
    value {
      type: DT_FLOAT
    }
  }
  attr {
    key: "_class"
    value {
      list {
        s: "loc:@BatchNorm_5/moving_variance"
      }
    }
  }
}
node {
  name: "BatchNorm_5/AssignMovingAvg_1"
  op: "AssignSub"
  input: "BatchNorm_5/moving_variance"
  input: "BatchNorm_5/AssignMovingAvg_1/mul"
  attr {
    key: "T"
    value {
      type: DT_FLOAT
    }
  }
  attr {
    key: "_class"
    value {
      list {
        s: "loc:@BatchNorm_5/moving_variance"
      }
    }
  }
  attr {
    key: "use_locking"
    value {
      b: false
    }
  }
}
node {
  name: "bottleneck_1_1/conv/alpha/Initializer/Const"
  op: "Const"
  attr {
    key: "_class"
    value {
      list {
        s: "loc:@bottleneck_1_1/conv/alpha"
      }
    }
  }
  attr {
    key: "dtype"
    value {
      type: DT_FLOAT
    }
  }
  attr {
    key: "value"
    value {
      tensor {
        dtype: DT_FLOAT
        tensor_shape {
          dim {
            size: 1
          }
        }
        float_val: 0.0
      }
    }
  }
}
node {
  name: "bottleneck_1_1/conv/alpha"
  op: "VariableV2"
  attr {
    key: "_class"
    value {
      list {
        s: "loc:@bottleneck_1_1/conv/alpha"
      }
    }
  }
  attr {
    key: "container"
    value {
      s: ""
    }
  }
  attr {
    key: "dtype"
    value {
      type: DT_FLOAT
    }
  }
  attr {
    key: "shape"
    value {
      shape {
        dim {
          size: 1
        }
      }
    }
  }
  attr {
    key: "shared_name"
    value {
      s: ""
    }
  }
}
node {
  name: "bottleneck_1_1/conv/alpha/Assign"
  op: "Assign"
  input: "bottleneck_1_1/conv/alpha"
  input: "bottleneck_1_1/conv/alpha/Initializer/Const"
  attr {
    key: "T"
    value {
      type: DT_FLOAT
    }
  }
  attr {
    key: "_class"
    value {
      list {
        s: "loc:@bottleneck_1_1/conv/alpha"
      }
    }
  }
  attr {
    key: "use_locking"
    value {
      b: true
    }
  }
  attr {
    key: "validate_shape"
    value {
      b: true
    }
  }
}
node {
  name: "bottleneck_1_1/conv/alpha/read"
  op: "Identity"
  input: "bottleneck_1_1/conv/alpha"
  attr {
    key: "T"
    value {
      type: DT_FLOAT
    }
  }
  attr {
    key: "_class"
    value {
      list {
        s: "loc:@bottleneck_1_1/conv/alpha"
      }
    }
  }
}
node {
  name: "Relu_5"
  op: "Relu"
  input: "BatchNorm_5/FusedBatchNorm"
  attr {
    key: "T"
    value {
      type: DT_FLOAT
    }
  }
}
node {
  name: "Abs_5"
  op: "Abs"
  input: "BatchNorm_5/FusedBatchNorm"
  attr {
    key: "T"
    value {
      type: DT_FLOAT
    }
  }
}
node {
  name: "sub_5"
  op: "Sub"
  input: "BatchNorm_5/FusedBatchNorm"
  input: "Abs_5"
  attr {
    key: "T"
    value {
      type: DT_FLOAT
    }
  }
}
node {
  name: "mul_19"
  op: "Mul"
  input: "bottleneck_1_1/conv/alpha/read"
  input: "sub_5"
  attr {
    key: "T"
    value {
      type: DT_FLOAT
    }
  }
}
node {
  name: "mul_20/y"
  op: "Const"
  attr {
    key: "dtype"
    value {
      type: DT_FLOAT
    }
  }
  attr {
    key: "value"
    value {
      tensor {
        dtype: DT_FLOAT
        tensor_shape {
        }
        float_val: 0.5
      }
    }
  }
}
node {
  name: "mul_20"
  op: "Mul"
  input: "mul_19"
  input: "mul_20/y"
  attr {
    key: "T"
    value {
      type: DT_FLOAT
    }
  }
}
node {
  name: "add_9"
  op: "Add"
  input: "Relu_5"
  input: "mul_20"
  attr {
    key: "T"
    value {
      type: DT_FLOAT
    }
  }
}
node {
  name: "bottleneck_1_1/W_exp/Initializer/random_uniform/shape"
  op: "Const"
  attr {
    key: "_class"
    value {
      list {
        s: "loc:@bottleneck_1_1/W_exp"
      }
    }
  }
  attr {
    key: "dtype"
    value {
      type: DT_INT32
    }
  }
  attr {
    key: "value"
    value {
      tensor {
        dtype: DT_INT32
        tensor_shape {
          dim {
            size: 4
          }
        }
        tensor_content: "\001\000\000\000\001\000\000\000\020\000\000\000@\000\000\000"
      }
    }
  }
}
node {
  name: "bottleneck_1_1/W_exp/Initializer/random_uniform/min"
  op: "Const"
  attr {
    key: "_class"
    value {
      list {
        s: "loc:@bottleneck_1_1/W_exp"
      }
    }
  }
  attr {
    key: "dtype"
    value {
      type: DT_FLOAT
    }
  }
  attr {
    key: "value"
    value {
      tensor {
        dtype: DT_FLOAT
        tensor_shape {
        }
        float_val: -0.273861289024353
      }
    }
  }
}
node {
  name: "bottleneck_1_1/W_exp/Initializer/random_uniform/max"
  op: "Const"
  attr {
    key: "_class"
    value {
      list {
        s: "loc:@bottleneck_1_1/W_exp"
      }
    }
  }
  attr {
    key: "dtype"
    value {
      type: DT_FLOAT
    }
  }
  attr {
    key: "value"
    value {
      tensor {
        dtype: DT_FLOAT
        tensor_shape {
        }
        float_val: 0.273861289024353
      }
    }
  }
}
node {
  name: "bottleneck_1_1/W_exp/Initializer/random_uniform/RandomUniform"
  op: "RandomUniform"
  input: "bottleneck_1_1/W_exp/Initializer/random_uniform/shape"
  attr {
    key: "T"
    value {
      type: DT_INT32
    }
  }
  attr {
    key: "_class"
    value {
      list {
        s: "loc:@bottleneck_1_1/W_exp"
      }
    }
  }
  attr {
    key: "dtype"
    value {
      type: DT_FLOAT
    }
  }
  attr {
    key: "seed"
    value {
      i: 0
    }
  }
  attr {
    key: "seed2"
    value {
      i: 0
    }
  }
}
node {
  name: "bottleneck_1_1/W_exp/Initializer/random_uniform/sub"
  op: "Sub"
  input: "bottleneck_1_1/W_exp/Initializer/random_uniform/max"
  input: "bottleneck_1_1/W_exp/Initializer/random_uniform/min"
  attr {
    key: "T"
    value {
      type: DT_FLOAT
    }
  }
  attr {
    key: "_class"
    value {
      list {
        s: "loc:@bottleneck_1_1/W_exp"
      }
    }
  }
}
node {
  name: "bottleneck_1_1/W_exp/Initializer/random_uniform/mul"
  op: "Mul"
  input: "bottleneck_1_1/W_exp/Initializer/random_uniform/RandomUniform"
  input: "bottleneck_1_1/W_exp/Initializer/random_uniform/sub"
  attr {
    key: "T"
    value {
      type: DT_FLOAT
    }
  }
  attr {
    key: "_class"
    value {
      list {
        s: "loc:@bottleneck_1_1/W_exp"
      }
    }
  }
}
node {
  name: "bottleneck_1_1/W_exp/Initializer/random_uniform"
  op: "Add"
  input: "bottleneck_1_1/W_exp/Initializer/random_uniform/mul"
  input: "bottleneck_1_1/W_exp/Initializer/random_uniform/min"
  attr {
    key: "T"
    value {
      type: DT_FLOAT
    }
  }
  attr {
    key: "_class"
    value {
      list {
        s: "loc:@bottleneck_1_1/W_exp"
      }
    }
  }
}
node {
  name: "bottleneck_1_1/W_exp"
  op: "VariableV2"
  attr {
    key: "_class"
    value {
      list {
        s: "loc:@bottleneck_1_1/W_exp"
      }
    }
  }
  attr {
    key: "container"
    value {
      s: ""
    }
  }
  attr {
    key: "dtype"
    value {
      type: DT_FLOAT
    }
  }
  attr {
    key: "shape"
    value {
      shape {
        dim {
          size: 1
        }
        dim {
          size: 1
        }
        dim {
          size: 16
        }
        dim {
          size: 64
        }
      }
    }
  }
  attr {
    key: "shared_name"
    value {
      s: ""
    }
  }
}
node {
  name: "bottleneck_1_1/W_exp/Assign"
  op: "Assign"
  input: "bottleneck_1_1/W_exp"
  input: "bottleneck_1_1/W_exp/Initializer/random_uniform"
  attr {
    key: "T"
    value {
      type: DT_FLOAT
    }
  }
  attr {
    key: "_class"
    value {
      list {
        s: "loc:@bottleneck_1_1/W_exp"
      }
    }
  }
  attr {
    key: "use_locking"
    value {
      b: true
    }
  }
  attr {
    key: "validate_shape"
    value {
      b: true
    }
  }
}
node {
  name: "bottleneck_1_1/W_exp/read"
  op: "Identity"
  input: "bottleneck_1_1/W_exp"
  attr {
    key: "T"
    value {
      type: DT_FLOAT
    }
  }
  attr {
    key: "_class"
    value {
      list {
        s: "loc:@bottleneck_1_1/W_exp"
      }
    }
  }
}
node {
  name: "L2Loss_9"
  op: "L2Loss"
  input: "bottleneck_1_1/W_exp/read"
  attr {
    key: "T"
    value {
      type: DT_FLOAT
    }
  }
}
node {
  name: "mul_21/x"
  op: "Const"
  attr {
    key: "dtype"
    value {
      type: DT_FLOAT
    }
  }
  attr {
    key: "value"
    value {
      tensor {
        dtype: DT_FLOAT
        tensor_shape {
        }
        float_val: 0.00019999999494757503
      }
    }
  }
}
node {
  name: "mul_21"
  op: "Mul"
  input: "mul_21/x"
  input: "L2Loss_9"
  attr {
    key: "T"
    value {
      type: DT_FLOAT
    }
  }
}
node {
  name: "Conv2D_6"
  op: "Conv2D"
  input: "add_9"
  input: "bottleneck_1_1/W_exp/read"
  attr {
    key: "T"
    value {
      type: DT_FLOAT
    }
  }
  attr {
    key: "data_format"
    value {
      s: "NHWC"
    }
  }
  attr {
    key: "dilations"
    value {
      list {
        i: 1
        i: 1
        i: 1
        i: 1
      }
    }
  }
  attr {
    key: "padding"
    value {
      s: "VALID"
    }
  }
  attr {
    key: "strides"
    value {
      list {
        i: 1
        i: 1
        i: 1
        i: 1
      }
    }
  }
  attr {
    key: "use_cudnn_on_gpu"
    value {
      b: true
    }
  }
}
node {
  name: "BatchNorm_6/Const"
  op: "Const"
  attr {
    key: "dtype"
    value {
      type: DT_FLOAT
    }
  }
  attr {
    key: "value"
    value {
      tensor {
        dtype: DT_FLOAT
        tensor_shape {
          dim {
            size: 64
          }
        }
        float_val: 1.0
      }
    }
  }
}
node {
  name: "BatchNorm_6/beta/Initializer/zeros"
  op: "Const"
  attr {
    key: "_class"
    value {
      list {
        s: "loc:@BatchNorm_6/beta"
      }
    }
  }
  attr {
    key: "dtype"
    value {
      type: DT_FLOAT
    }
  }
  attr {
    key: "value"
    value {
      tensor {
        dtype: DT_FLOAT
        tensor_shape {
          dim {
            size: 64
          }
        }
        float_val: 0.0
      }
    }
  }
}
node {
  name: "BatchNorm_6/beta"
  op: "VariableV2"
  attr {
    key: "_class"
    value {
      list {
        s: "loc:@BatchNorm_6/beta"
      }
    }
  }
  attr {
    key: "container"
    value {
      s: ""
    }
  }
  attr {
    key: "dtype"
    value {
      type: DT_FLOAT
    }
  }
  attr {
    key: "shape"
    value {
      shape {
        dim {
          size: 64
        }
      }
    }
  }
  attr {
    key: "shared_name"
    value {
      s: ""
    }
  }
}
node {
  name: "BatchNorm_6/beta/Assign"
  op: "Assign"
  input: "BatchNorm_6/beta"
  input: "BatchNorm_6/beta/Initializer/zeros"
  attr {
    key: "T"
    value {
      type: DT_FLOAT
    }
  }
  attr {
    key: "_class"
    value {
      list {
        s: "loc:@BatchNorm_6/beta"
      }
    }
  }
  attr {
    key: "use_locking"
    value {
      b: true
    }
  }
  attr {
    key: "validate_shape"
    value {
      b: true
    }
  }
}
node {
  name: "BatchNorm_6/beta/read"
  op: "Identity"
  input: "BatchNorm_6/beta"
  attr {
    key: "T"
    value {
      type: DT_FLOAT
    }
  }
  attr {
    key: "_class"
    value {
      list {
        s: "loc:@BatchNorm_6/beta"
      }
    }
  }
}
node {
  name: "BatchNorm_6/moving_mean/Initializer/zeros"
  op: "Const"
  attr {
    key: "_class"
    value {
      list {
        s: "loc:@BatchNorm_6/moving_mean"
      }
    }
  }
  attr {
    key: "dtype"
    value {
      type: DT_FLOAT
    }
  }
  attr {
    key: "value"
    value {
      tensor {
        dtype: DT_FLOAT
        tensor_shape {
          dim {
            size: 64
          }
        }
        float_val: 0.0
      }
    }
  }
}
node {
  name: "BatchNorm_6/moving_mean"
  op: "VariableV2"
  attr {
    key: "_class"
    value {
      list {
        s: "loc:@BatchNorm_6/moving_mean"
      }
    }
  }
  attr {
    key: "container"
    value {
      s: ""
    }
  }
  attr {
    key: "dtype"
    value {
      type: DT_FLOAT
    }
  }
  attr {
    key: "shape"
    value {
      shape {
        dim {
          size: 64
        }
      }
    }
  }
  attr {
    key: "shared_name"
    value {
      s: ""
    }
  }
}
node {
  name: "BatchNorm_6/moving_mean/Assign"
  op: "Assign"
  input: "BatchNorm_6/moving_mean"
  input: "BatchNorm_6/moving_mean/Initializer/zeros"
  attr {
    key: "T"
    value {
      type: DT_FLOAT
    }
  }
  attr {
    key: "_class"
    value {
      list {
        s: "loc:@BatchNorm_6/moving_mean"
      }
    }
  }
  attr {
    key: "use_locking"
    value {
      b: true
    }
  }
  attr {
    key: "validate_shape"
    value {
      b: true
    }
  }
}
node {
  name: "BatchNorm_6/moving_mean/read"
  op: "Identity"
  input: "BatchNorm_6/moving_mean"
  attr {
    key: "T"
    value {
      type: DT_FLOAT
    }
  }
  attr {
    key: "_class"
    value {
      list {
        s: "loc:@BatchNorm_6/moving_mean"
      }
    }
  }
}
node {
  name: "BatchNorm_6/moving_variance/Initializer/ones"
  op: "Const"
  attr {
    key: "_class"
    value {
      list {
        s: "loc:@BatchNorm_6/moving_variance"
      }
    }
  }
  attr {
    key: "dtype"
    value {
      type: DT_FLOAT
    }
  }
  attr {
    key: "value"
    value {
      tensor {
        dtype: DT_FLOAT
        tensor_shape {
          dim {
            size: 64
          }
        }
        float_val: 1.0
      }
    }
  }
}
node {
  name: "BatchNorm_6/moving_variance"
  op: "VariableV2"
  attr {
    key: "_class"
    value {
      list {
        s: "loc:@BatchNorm_6/moving_variance"
      }
    }
  }
  attr {
    key: "container"
    value {
      s: ""
    }
  }
  attr {
    key: "dtype"
    value {
      type: DT_FLOAT
    }
  }
  attr {
    key: "shape"
    value {
      shape {
        dim {
          size: 64
        }
      }
    }
  }
  attr {
    key: "shared_name"
    value {
      s: ""
    }
  }
}
node {
  name: "BatchNorm_6/moving_variance/Assign"
  op: "Assign"
  input: "BatchNorm_6/moving_variance"
  input: "BatchNorm_6/moving_variance/Initializer/ones"
  attr {
    key: "T"
    value {
      type: DT_FLOAT
    }
  }
  attr {
    key: "_class"
    value {
      list {
        s: "loc:@BatchNorm_6/moving_variance"
      }
    }
  }
  attr {
    key: "use_locking"
    value {
      b: true
    }
  }
  attr {
    key: "validate_shape"
    value {
      b: true
    }
  }
}
node {
  name: "BatchNorm_6/moving_variance/read"
  op: "Identity"
  input: "BatchNorm_6/moving_variance"
  attr {
    key: "T"
    value {
      type: DT_FLOAT
    }
  }
  attr {
    key: "_class"
    value {
      list {
        s: "loc:@BatchNorm_6/moving_variance"
      }
    }
  }
}
node {
  name: "BatchNorm_6/Const_1"
  op: "Const"
  attr {
    key: "dtype"
    value {
      type: DT_FLOAT
    }
  }
  attr {
    key: "value"
    value {
      tensor {
        dtype: DT_FLOAT
        tensor_shape {
          dim {
          }
        }
      }
    }
  }
}
node {
  name: "BatchNorm_6/Const_2"
  op: "Const"
  attr {
    key: "dtype"
    value {
      type: DT_FLOAT
    }
  }
  attr {
    key: "value"
    value {
      tensor {
        dtype: DT_FLOAT
        tensor_shape {
          dim {
          }
        }
      }
    }
  }
}
node {
  name: "BatchNorm_6/FusedBatchNorm"
  op: "FusedBatchNorm"
  input: "Conv2D_6"
  input: "BatchNorm_6/Const"
  input: "BatchNorm_6/beta/read"
  input: "BatchNorm_6/Const_1"
  input: "BatchNorm_6/Const_2"
  attr {
    key: "T"
    value {
      type: DT_FLOAT
    }
  }
  attr {
    key: "data_format"
    value {
      s: "NHWC"
    }
  }
  attr {
    key: "epsilon"
    value {
      f: 0.0010000000474974513
    }
  }
  attr {
    key: "is_training"
    value {
      b: true
    }
  }
}
node {
  name: "BatchNorm_6/Const_3"
  op: "Const"
  attr {
    key: "dtype"
    value {
      type: DT_FLOAT
    }
  }
  attr {
    key: "value"
    value {
      tensor {
        dtype: DT_FLOAT
        tensor_shape {
        }
        float_val: 0.9990000128746033
      }
    }
  }
}
node {
  name: "BatchNorm_6/AssignMovingAvg/sub/x"
  op: "Const"
  attr {
    key: "_class"
    value {
      list {
        s: "loc:@BatchNorm_6/moving_mean"
      }
    }
  }
  attr {
    key: "dtype"
    value {
      type: DT_FLOAT
    }
  }
  attr {
    key: "value"
    value {
      tensor {
        dtype: DT_FLOAT
        tensor_shape {
        }
        float_val: 1.0
      }
    }
  }
}
node {
  name: "BatchNorm_6/AssignMovingAvg/sub"
  op: "Sub"
  input: "BatchNorm_6/AssignMovingAvg/sub/x"
  input: "BatchNorm_6/Const_3"
  attr {
    key: "T"
    value {
      type: DT_FLOAT
    }
  }
  attr {
    key: "_class"
    value {
      list {
        s: "loc:@BatchNorm_6/moving_mean"
      }
    }
  }
}
node {
  name: "BatchNorm_6/AssignMovingAvg/sub_1"
  op: "Sub"
  input: "BatchNorm_6/moving_mean/read"
  input: "BatchNorm_6/FusedBatchNorm:1"
  attr {
    key: "T"
    value {
      type: DT_FLOAT
    }
  }
  attr {
    key: "_class"
    value {
      list {
        s: "loc:@BatchNorm_6/moving_mean"
      }
    }
  }
}
node {
  name: "BatchNorm_6/AssignMovingAvg/mul"
  op: "Mul"
  input: "BatchNorm_6/AssignMovingAvg/sub_1"
  input: "BatchNorm_6/AssignMovingAvg/sub"
  attr {
    key: "T"
    value {
      type: DT_FLOAT
    }
  }
  attr {
    key: "_class"
    value {
      list {
        s: "loc:@BatchNorm_6/moving_mean"
      }
    }
  }
}
node {
  name: "BatchNorm_6/AssignMovingAvg"
  op: "AssignSub"
  input: "BatchNorm_6/moving_mean"
  input: "BatchNorm_6/AssignMovingAvg/mul"
  attr {
    key: "T"
    value {
      type: DT_FLOAT
    }
  }
  attr {
    key: "_class"
    value {
      list {
        s: "loc:@BatchNorm_6/moving_mean"
      }
    }
  }
  attr {
    key: "use_locking"
    value {
      b: false
    }
  }
}
node {
  name: "BatchNorm_6/AssignMovingAvg_1/sub/x"
  op: "Const"
  attr {
    key: "_class"
    value {
      list {
        s: "loc:@BatchNorm_6/moving_variance"
      }
    }
  }
  attr {
    key: "dtype"
    value {
      type: DT_FLOAT
    }
  }
  attr {
    key: "value"
    value {
      tensor {
        dtype: DT_FLOAT
        tensor_shape {
        }
        float_val: 1.0
      }
    }
  }
}
node {
  name: "BatchNorm_6/AssignMovingAvg_1/sub"
  op: "Sub"
  input: "BatchNorm_6/AssignMovingAvg_1/sub/x"
  input: "BatchNorm_6/Const_3"
  attr {
    key: "T"
    value {
      type: DT_FLOAT
    }
  }
  attr {
    key: "_class"
    value {
      list {
        s: "loc:@BatchNorm_6/moving_variance"
      }
    }
  }
}
node {
  name: "BatchNorm_6/AssignMovingAvg_1/sub_1"
  op: "Sub"
  input: "BatchNorm_6/moving_variance/read"
  input: "BatchNorm_6/FusedBatchNorm:2"
  attr {
    key: "T"
    value {
      type: DT_FLOAT
    }
  }
  attr {
    key: "_class"
    value {
      list {
        s: "loc:@BatchNorm_6/moving_variance"
      }
    }
  }
}
node {
  name: "BatchNorm_6/AssignMovingAvg_1/mul"
  op: "Mul"
  input: "BatchNorm_6/AssignMovingAvg_1/sub_1"
  input: "BatchNorm_6/AssignMovingAvg_1/sub"
  attr {
    key: "T"
    value {
      type: DT_FLOAT
    }
  }
  attr {
    key: "_class"
    value {
      list {
        s: "loc:@BatchNorm_6/moving_variance"
      }
    }
  }
}
node {
  name: "BatchNorm_6/AssignMovingAvg_1"
  op: "AssignSub"
  input: "BatchNorm_6/moving_variance"
  input: "BatchNorm_6/AssignMovingAvg_1/mul"
  attr {
    key: "T"
    value {
      type: DT_FLOAT
    }
  }
  attr {
    key: "_class"
    value {
      list {
        s: "loc:@BatchNorm_6/moving_variance"
      }
    }
  }
  attr {
    key: "use_locking"
    value {
      b: false
    }
  }
}
node {
  name: "add_10"
  op: "Add"
  input: "BatchNorm_6/FusedBatchNorm"
  input: "add_6"
  attr {
    key: "T"
    value {
      type: DT_FLOAT
    }
  }
}
node {
  name: "bottleneck_1_1/output/alpha/Initializer/Const"
  op: "Const"
  attr {
    key: "_class"
    value {
      list {
        s: "loc:@bottleneck_1_1/output/alpha"
      }
    }
  }
  attr {
    key: "dtype"
    value {
      type: DT_FLOAT
    }
  }
  attr {
    key: "value"
    value {
      tensor {
        dtype: DT_FLOAT
        tensor_shape {
          dim {
            size: 1
          }
        }
        float_val: 0.0
      }
    }
  }
}
node {
  name: "bottleneck_1_1/output/alpha"
  op: "VariableV2"
  attr {
    key: "_class"
    value {
      list {
        s: "loc:@bottleneck_1_1/output/alpha"
      }
    }
  }
  attr {
    key: "container"
    value {
      s: ""
    }
  }
  attr {
    key: "dtype"
    value {
      type: DT_FLOAT
    }
  }
  attr {
    key: "shape"
    value {
      shape {
        dim {
          size: 1
        }
      }
    }
  }
  attr {
    key: "shared_name"
    value {
      s: ""
    }
  }
}
node {
  name: "bottleneck_1_1/output/alpha/Assign"
  op: "Assign"
  input: "bottleneck_1_1/output/alpha"
  input: "bottleneck_1_1/output/alpha/Initializer/Const"
  attr {
    key: "T"
    value {
      type: DT_FLOAT
    }
  }
  attr {
    key: "_class"
    value {
      list {
        s: "loc:@bottleneck_1_1/output/alpha"
      }
    }
  }
  attr {
    key: "use_locking"
    value {
      b: true
    }
  }
  attr {
    key: "validate_shape"
    value {
      b: true
    }
  }
}
node {
  name: "bottleneck_1_1/output/alpha/read"
  op: "Identity"
  input: "bottleneck_1_1/output/alpha"
  attr {
    key: "T"
    value {
      type: DT_FLOAT
    }
  }
  attr {
    key: "_class"
    value {
      list {
        s: "loc:@bottleneck_1_1/output/alpha"
      }
    }
  }
}
node {
  name: "Relu_6"
  op: "Relu"
  input: "add_10"
  attr {
    key: "T"
    value {
      type: DT_FLOAT
    }
  }
}
node {
  name: "Abs_6"
  op: "Abs"
  input: "add_10"
  attr {
    key: "T"
    value {
      type: DT_FLOAT
    }
  }
}
node {
  name: "sub_6"
  op: "Sub"
  input: "add_10"
  input: "Abs_6"
  attr {
    key: "T"
    value {
      type: DT_FLOAT
    }
  }
}
node {
  name: "mul_22"
  op: "Mul"
  input: "bottleneck_1_1/output/alpha/read"
  input: "sub_6"
  attr {
    key: "T"
    value {
      type: DT_FLOAT
    }
  }
}
node {
  name: "mul_23/y"
  op: "Const"
  attr {
    key: "dtype"
    value {
      type: DT_FLOAT
    }
  }
  attr {
    key: "value"
    value {
      tensor {
        dtype: DT_FLOAT
        tensor_shape {
        }
        float_val: 0.5
      }
    }
  }
}
node {
  name: "mul_23"
  op: "Mul"
  input: "mul_22"
  input: "mul_23/y"
  attr {
    key: "T"
    value {
      type: DT_FLOAT
    }
  }
}
node {
  name: "add_11"
  op: "Add"
  input: "Relu_6"
  input: "mul_23"
  attr {
    key: "T"
    value {
      type: DT_FLOAT
    }
  }
}
node {
  name: "bottleneck_1_2/W_proj/Initializer/random_uniform/shape"
  op: "Const"
  attr {
    key: "_class"
    value {
      list {
        s: "loc:@bottleneck_1_2/W_proj"
      }
    }
  }
  attr {
    key: "dtype"
    value {
      type: DT_INT32
    }
  }
  attr {
    key: "value"
    value {
      tensor {
        dtype: DT_INT32
        tensor_shape {
          dim {
            size: 4
          }
        }
        tensor_content: "\001\000\000\000\001\000\000\000@\000\000\000\020\000\000\000"
      }
    }
  }
}
node {
  name: "bottleneck_1_2/W_proj/Initializer/random_uniform/min"
  op: "Const"
  attr {
    key: "_class"
    value {
      list {
        s: "loc:@bottleneck_1_2/W_proj"
      }
    }
  }
  attr {
    key: "dtype"
    value {
      type: DT_FLOAT
    }
  }
  attr {
    key: "value"
    value {
      tensor {
        dtype: DT_FLOAT
        tensor_shape {
        }
        float_val: -0.273861289024353
      }
    }
  }
}
node {
  name: "bottleneck_1_2/W_proj/Initializer/random_uniform/max"
  op: "Const"
  attr {
    key: "_class"
    value {
      list {
        s: "loc:@bottleneck_1_2/W_proj"
      }
    }
  }
  attr {
    key: "dtype"
    value {
      type: DT_FLOAT
    }
  }
  attr {
    key: "value"
    value {
      tensor {
        dtype: DT_FLOAT
        tensor_shape {
        }
        float_val: 0.273861289024353
      }
    }
  }
}
node {
  name: "bottleneck_1_2/W_proj/Initializer/random_uniform/RandomUniform"
  op: "RandomUniform"
  input: "bottleneck_1_2/W_proj/Initializer/random_uniform/shape"
  attr {
    key: "T"
    value {
      type: DT_INT32
    }
  }
  attr {
    key: "_class"
    value {
      list {
        s: "loc:@bottleneck_1_2/W_proj"
      }
    }
  }
  attr {
    key: "dtype"
    value {
      type: DT_FLOAT
    }
  }
  attr {
    key: "seed"
    value {
      i: 0
    }
  }
  attr {
    key: "seed2"
    value {
      i: 0
    }
  }
}
node {
  name: "bottleneck_1_2/W_proj/Initializer/random_uniform/sub"
  op: "Sub"
  input: "bottleneck_1_2/W_proj/Initializer/random_uniform/max"
  input: "bottleneck_1_2/W_proj/Initializer/random_uniform/min"
  attr {
    key: "T"
    value {
      type: DT_FLOAT
    }
  }
  attr {
    key: "_class"
    value {
      list {
        s: "loc:@bottleneck_1_2/W_proj"
      }
    }
  }
}
node {
  name: "bottleneck_1_2/W_proj/Initializer/random_uniform/mul"
  op: "Mul"
  input: "bottleneck_1_2/W_proj/Initializer/random_uniform/RandomUniform"
  input: "bottleneck_1_2/W_proj/Initializer/random_uniform/sub"
  attr {
    key: "T"
    value {
      type: DT_FLOAT
    }
  }
  attr {
    key: "_class"
    value {
      list {
        s: "loc:@bottleneck_1_2/W_proj"
      }
    }
  }
}
node {
  name: "bottleneck_1_2/W_proj/Initializer/random_uniform"
  op: "Add"
  input: "bottleneck_1_2/W_proj/Initializer/random_uniform/mul"
  input: "bottleneck_1_2/W_proj/Initializer/random_uniform/min"
  attr {
    key: "T"
    value {
      type: DT_FLOAT
    }
  }
  attr {
    key: "_class"
    value {
      list {
        s: "loc:@bottleneck_1_2/W_proj"
      }
    }
  }
}
node {
  name: "bottleneck_1_2/W_proj"
  op: "VariableV2"
  attr {
    key: "_class"
    value {
      list {
        s: "loc:@bottleneck_1_2/W_proj"
      }
    }
  }
  attr {
    key: "container"
    value {
      s: ""
    }
  }
  attr {
    key: "dtype"
    value {
      type: DT_FLOAT
    }
  }
  attr {
    key: "shape"
    value {
      shape {
        dim {
          size: 1
        }
        dim {
          size: 1
        }
        dim {
          size: 64
        }
        dim {
          size: 16
        }
      }
    }
  }
  attr {
    key: "shared_name"
    value {
      s: ""
    }
  }
}
node {
  name: "bottleneck_1_2/W_proj/Assign"
  op: "Assign"
  input: "bottleneck_1_2/W_proj"
  input: "bottleneck_1_2/W_proj/Initializer/random_uniform"
  attr {
    key: "T"
    value {
      type: DT_FLOAT
    }
  }
  attr {
    key: "_class"
    value {
      list {
        s: "loc:@bottleneck_1_2/W_proj"
      }
    }
  }
  attr {
    key: "use_locking"
    value {
      b: true
    }
  }
  attr {
    key: "validate_shape"
    value {
      b: true
    }
  }
}
node {
  name: "bottleneck_1_2/W_proj/read"
  op: "Identity"
  input: "bottleneck_1_2/W_proj"
  attr {
    key: "T"
    value {
      type: DT_FLOAT
    }
  }
  attr {
    key: "_class"
    value {
      list {
        s: "loc:@bottleneck_1_2/W_proj"
      }
    }
  }
}
node {
  name: "L2Loss_10"
  op: "L2Loss"
  input: "bottleneck_1_2/W_proj/read"
  attr {
    key: "T"
    value {
      type: DT_FLOAT
    }
  }
}
node {
  name: "mul_24/x"
  op: "Const"
  attr {
    key: "dtype"
    value {
      type: DT_FLOAT
    }
  }
  attr {
    key: "value"
    value {
      tensor {
        dtype: DT_FLOAT
        tensor_shape {
        }
        float_val: 0.00019999999494757503
      }
    }
  }
}
node {
  name: "mul_24"
  op: "Mul"
  input: "mul_24/x"
  input: "L2Loss_10"
  attr {
    key: "T"
    value {
      type: DT_FLOAT
    }
  }
}
node {
  name: "Conv2D_7"
  op: "Conv2D"
  input: "add_11"
  input: "bottleneck_1_2/W_proj/read"
  attr {
    key: "T"
    value {
      type: DT_FLOAT
    }
  }
  attr {
    key: "data_format"
    value {
      s: "NHWC"
    }
  }
  attr {
    key: "dilations"
    value {
      list {
        i: 1
        i: 1
        i: 1
        i: 1
      }
    }
  }
  attr {
    key: "padding"
    value {
      s: "VALID"
    }
  }
  attr {
    key: "strides"
    value {
      list {
        i: 1
        i: 1
        i: 1
        i: 1
      }
    }
  }
  attr {
    key: "use_cudnn_on_gpu"
    value {
      b: true
    }
  }
}
node {
  name: "BatchNorm_7/Const"
  op: "Const"
  attr {
    key: "dtype"
    value {
      type: DT_FLOAT
    }
  }
  attr {
    key: "value"
    value {
      tensor {
        dtype: DT_FLOAT
        tensor_shape {
          dim {
            size: 16
          }
        }
        float_val: 1.0
      }
    }
  }
}
node {
  name: "BatchNorm_7/beta/Initializer/zeros"
  op: "Const"
  attr {
    key: "_class"
    value {
      list {
        s: "loc:@BatchNorm_7/beta"
      }
    }
  }
  attr {
    key: "dtype"
    value {
      type: DT_FLOAT
    }
  }
  attr {
    key: "value"
    value {
      tensor {
        dtype: DT_FLOAT
        tensor_shape {
          dim {
            size: 16
          }
        }
        float_val: 0.0
      }
    }
  }
}
node {
  name: "BatchNorm_7/beta"
  op: "VariableV2"
  attr {
    key: "_class"
    value {
      list {
        s: "loc:@BatchNorm_7/beta"
      }
    }
  }
  attr {
    key: "container"
    value {
      s: ""
    }
  }
  attr {
    key: "dtype"
    value {
      type: DT_FLOAT
    }
  }
  attr {
    key: "shape"
    value {
      shape {
        dim {
          size: 16
        }
      }
    }
  }
  attr {
    key: "shared_name"
    value {
      s: ""
    }
  }
}
node {
  name: "BatchNorm_7/beta/Assign"
  op: "Assign"
  input: "BatchNorm_7/beta"
  input: "BatchNorm_7/beta/Initializer/zeros"
  attr {
    key: "T"
    value {
      type: DT_FLOAT
    }
  }
  attr {
    key: "_class"
    value {
      list {
        s: "loc:@BatchNorm_7/beta"
      }
    }
  }
  attr {
    key: "use_locking"
    value {
      b: true
    }
  }
  attr {
    key: "validate_shape"
    value {
      b: true
    }
  }
}
node {
  name: "BatchNorm_7/beta/read"
  op: "Identity"
  input: "BatchNorm_7/beta"
  attr {
    key: "T"
    value {
      type: DT_FLOAT
    }
  }
  attr {
    key: "_class"
    value {
      list {
        s: "loc:@BatchNorm_7/beta"
      }
    }
  }
}
node {
  name: "BatchNorm_7/moving_mean/Initializer/zeros"
  op: "Const"
  attr {
    key: "_class"
    value {
      list {
        s: "loc:@BatchNorm_7/moving_mean"
      }
    }
  }
  attr {
    key: "dtype"
    value {
      type: DT_FLOAT
    }
  }
  attr {
    key: "value"
    value {
      tensor {
        dtype: DT_FLOAT
        tensor_shape {
          dim {
            size: 16
          }
        }
        float_val: 0.0
      }
    }
  }
}
node {
  name: "BatchNorm_7/moving_mean"
  op: "VariableV2"
  attr {
    key: "_class"
    value {
      list {
        s: "loc:@BatchNorm_7/moving_mean"
      }
    }
  }
  attr {
    key: "container"
    value {
      s: ""
    }
  }
  attr {
    key: "dtype"
    value {
      type: DT_FLOAT
    }
  }
  attr {
    key: "shape"
    value {
      shape {
        dim {
          size: 16
        }
      }
    }
  }
  attr {
    key: "shared_name"
    value {
      s: ""
    }
  }
}
node {
  name: "BatchNorm_7/moving_mean/Assign"
  op: "Assign"
  input: "BatchNorm_7/moving_mean"
  input: "BatchNorm_7/moving_mean/Initializer/zeros"
  attr {
    key: "T"
    value {
      type: DT_FLOAT
    }
  }
  attr {
    key: "_class"
    value {
      list {
        s: "loc:@BatchNorm_7/moving_mean"
      }
    }
  }
  attr {
    key: "use_locking"
    value {
      b: true
    }
  }
  attr {
    key: "validate_shape"
    value {
      b: true
    }
  }
}
node {
  name: "BatchNorm_7/moving_mean/read"
  op: "Identity"
  input: "BatchNorm_7/moving_mean"
  attr {
    key: "T"
    value {
      type: DT_FLOAT
    }
  }
  attr {
    key: "_class"
    value {
      list {
        s: "loc:@BatchNorm_7/moving_mean"
      }
    }
  }
}
node {
  name: "BatchNorm_7/moving_variance/Initializer/ones"
  op: "Const"
  attr {
    key: "_class"
    value {
      list {
        s: "loc:@BatchNorm_7/moving_variance"
      }
    }
  }
  attr {
    key: "dtype"
    value {
      type: DT_FLOAT
    }
  }
  attr {
    key: "value"
    value {
      tensor {
        dtype: DT_FLOAT
        tensor_shape {
          dim {
            size: 16
          }
        }
        float_val: 1.0
      }
    }
  }
}
node {
  name: "BatchNorm_7/moving_variance"
  op: "VariableV2"
  attr {
    key: "_class"
    value {
      list {
        s: "loc:@BatchNorm_7/moving_variance"
      }
    }
  }
  attr {
    key: "container"
    value {
      s: ""
    }
  }
  attr {
…
    key: "T"
    value {
      type: DT_FLOAT
    }
  }
  attr {
    key: "_class"
    value {
      list {
        s: "loc:@bottleneck_3_6/conv/alpha"
      }
    }
  }
  attr {
    key: "use_locking"
    value {
      b: true
    }
  }
  attr {
    key: "validate_shape"
    value {
      b: true
    }
  }
}
node {
  name: "save/Assign_393"
  op: "Assign"
  input: "bottleneck_3_6/output/alpha"
  input: "save/RestoreV2:393"
  attr {
    key: "T"
    value {
      type: DT_FLOAT
    }
  }
  attr {
    key: "_class"
    value {
      list {
        s: "loc:@bottleneck_3_6/output/alpha"
      }
    }
  }
  attr {
    key: "use_locking"
    value {
      b: true
    }
  }
  attr {
    key: "validate_shape"
    value {
      b: true
    }
  }
}
node {
  name: "save/Assign_394"
  op: "Assign"
  input: "bottleneck_3_6/proj/alpha"
  input: "save/RestoreV2:394"
  attr {
    key: "T"
    value {
      type: DT_FLOAT
    }
  }
  attr {
    key: "_class"
    value {
      list {
        s: "loc:@bottleneck_3_6/proj/alpha"
      }
    }
  }
  attr {
    key: "use_locking"
    value {
      b: true
    }
  }
  attr {
    key: "validate_shape"
    value {
      b: true
    }
  }
}
node {
  name: "save/Assign_395"
  op: "Assign"
  input: "bottleneck_3_7/W_conv1"
  input: "save/RestoreV2:395"
  attr {
    key: "T"
    value {
      type: DT_FLOAT
    }
  }
  attr {
    key: "_class"
    value {
      list {
        s: "loc:@bottleneck_3_7/W_conv1"
      }
    }
  }
  attr {
    key: "use_locking"
    value {
      b: true
    }
  }
  attr {
    key: "validate_shape"
    value {
      b: true
    }
  }
}
node {
  name: "save/Assign_396"
  op: "Assign"
  input: "bottleneck_3_7/W_conv2"
  input: "save/RestoreV2:396"
  attr {
    key: "T"
    value {
      type: DT_FLOAT
    }
  }
  attr {
    key: "_class"
    value {
      list {
        s: "loc:@bottleneck_3_7/W_conv2"
      }
    }
  }
  attr {
    key: "use_locking"
    value {
      b: true
    }
  }
  attr {
    key: "validate_shape"
    value {
      b: true
    }
  }
}
node {
  name: "save/Assign_397"
  op: "Assign"
  input: "bottleneck_3_7/W_exp"
  input: "save/RestoreV2:397"
  attr {
    key: "T"
    value {
      type: DT_FLOAT
    }
  }
  attr {
    key: "_class"
    value {
      list {
        s: "loc:@bottleneck_3_7/W_exp"
      }
    }
  }
  attr {
    key: "use_locking"
    value {
      b: true
    }
  }
  attr {
    key: "validate_shape"
    value {
      b: true
    }
  }
}
node {
  name: "save/Assign_398"
  op: "Assign"
  input: "bottleneck_3_7/W_proj"
  input: "save/RestoreV2:398"
  attr {
    key: "T"
    value {
      type: DT_FLOAT
    }
  }
  attr {
    key: "_class"
    value {
      list {
        s: "loc:@bottleneck_3_7/W_proj"
      }
    }
  }
  attr {
    key: "use_locking"
    value {
      b: true
    }
  }
  attr {
    key: "validate_shape"
    value {
      b: true
    }
  }
}
node {
  name: "save/Assign_399"
  op: "Assign"
  input: "bottleneck_3_7/b_conv2"
  input: "save/RestoreV2:399"
  attr {
    key: "T"
    value {
      type: DT_FLOAT
    }
  }
  attr {
    key: "_class"
    value {
      list {
        s: "loc:@bottleneck_3_7/b_conv2"
      }
    }
  }
  attr {
    key: "use_locking"
    value {
      b: true
    }
  }
  attr {
    key: "validate_shape"
    value {
      b: true
    }
  }
}
node {
  name: "save/Assign_400"
  op: "Assign"
  input: "bottleneck_3_7/conv/alpha"
  input: "save/RestoreV2:400"
  attr {
    key: "T"
    value {
      type: DT_FLOAT
    }
  }
  attr {
    key: "_class"
    value {
      list {
        s: "loc:@bottleneck_3_7/conv/alpha"
      }
    }
  }
  attr {
    key: "use_locking"
    value {
      b: true
    }
  }
  attr {
    key: "validate_shape"
    value {
      b: true
    }
  }
}
node {
  name: "save/Assign_401"
  op: "Assign"
  input: "bottleneck_3_7/output/alpha"
  input: "save/RestoreV2:401"
  attr {
    key: "T"
    value {
      type: DT_FLOAT
    }
  }
  attr {
    key: "_class"
    value {
      list {
        s: "loc:@bottleneck_3_7/output/alpha"
      }
    }
  }
  attr {
    key: "use_locking"
    value {
      b: true
    }
  }
  attr {
    key: "validate_shape"
    value {
      b: true
    }
  }
}
node {
  name: "save/Assign_402"
  op: "Assign"
  input: "bottleneck_3_7/proj/alpha"
  input: "save/RestoreV2:402"
  attr {
    key: "T"
    value {
      type: DT_FLOAT
    }
  }
  attr {
    key: "_class"
    value {
      list {
        s: "loc:@bottleneck_3_7/proj/alpha"
      }
    }
  }
  attr {
    key: "use_locking"
    value {
      b: true
    }
  }
  attr {
    key: "validate_shape"
    value {
      b: true
    }
  }
}
node {
  name: "save/Assign_403"
  op: "Assign"
  input: "bottleneck_3_8/W_conv"
  input: "save/RestoreV2:403"
  attr {
    key: "T"
    value {
      type: DT_FLOAT
    }
  }
  attr {
    key: "_class"
    value {
      list {
        s: "loc:@bottleneck_3_8/W_conv"
      }
    }
  }
  attr {
    key: "use_locking"
    value {
      b: true
    }
  }
  attr {
    key: "validate_shape"
    value {
      b: true
    }
  }
}
node {
  name: "save/Assign_404"
  op: "Assign"
  input: "bottleneck_3_8/W_exp"
  input: "save/RestoreV2:404"
  attr {
    key: "T"
    value {
      type: DT_FLOAT
    }
  }
  attr {
    key: "_class"
    value {
      list {
        s: "loc:@bottleneck_3_8/W_exp"
      }
    }
  }
  attr {
    key: "use_locking"
    value {
      b: true
    }
  }
  attr {
    key: "validate_shape"
    value {
      b: true
    }
  }
}
node {
  name: "save/Assign_405"
  op: "Assign"
  input: "bottleneck_3_8/W_proj"
  input: "save/RestoreV2:405"
  attr {
    key: "T"
    value {
      type: DT_FLOAT
    }
  }
  attr {
    key: "_class"
    value {
      list {
        s: "loc:@bottleneck_3_8/W_proj"
      }
    }
  }
  attr {
    key: "use_locking"
    value {
      b: true
    }
  }
  attr {
    key: "validate_shape"
    value {
      b: true
    }
  }
}
node {
  name: "save/Assign_406"
  op: "Assign"
  input: "bottleneck_3_8/b_conv"
  input: "save/RestoreV2:406"
  attr {
    key: "T"
    value {
      type: DT_FLOAT
    }
  }
  attr {
    key: "_class"
    value {
      list {
        s: "loc:@bottleneck_3_8/b_conv"
      }
    }
  }
  attr {
    key: "use_locking"
    value {
      b: true
    }
  }
  attr {
    key: "validate_shape"
    value {
      b: true
    }
  }
}
node {
  name: "save/Assign_407"
  op: "Assign"
  input: "bottleneck_3_8/conv/alpha"
  input: "save/RestoreV2:407"
  attr {
    key: "T"
    value {
      type: DT_FLOAT
    }
  }
  attr {
    key: "_class"
    value {
      list {
        s: "loc:@bottleneck_3_8/conv/alpha"
      }
    }
  }
  attr {
    key: "use_locking"
    value {
      b: true
    }
  }
  attr {
    key: "validate_shape"
    value {
      b: true
    }
  }
}
node {
  name: "save/Assign_408"
  op: "Assign"
  input: "bottleneck_3_8/output/alpha"
  input: "save/RestoreV2:408"
  attr {
    key: "T"
    value {
      type: DT_FLOAT
    }
  }
  attr {
    key: "_class"
    value {
      list {
        s: "loc:@bottleneck_3_8/output/alpha"
      }
    }
  }
  attr {
    key: "use_locking"
    value {
      b: true
    }
  }
  attr {
    key: "validate_shape"
    value {
      b: true
    }
  }
}
node {
  name: "save/Assign_409"
  op: "Assign"
  input: "bottleneck_3_8/proj/alpha"
  input: "save/RestoreV2:409"
  attr {
    key: "T"
    value {
      type: DT_FLOAT
    }
  }
  attr {
    key: "_class"
    value {
      list {
        s: "loc:@bottleneck_3_8/proj/alpha"
      }
    }
  }
  attr {
    key: "use_locking"
    value {
      b: true
    }
  }
  attr {
    key: "validate_shape"
    value {
      b: true
    }
  }
}
node {
  name: "save/Assign_410"
  op: "Assign"
  input: "bottleneck_4_0/W_conv"
  input: "save/RestoreV2:410"
  attr {
    key: "T"
    value {
      type: DT_FLOAT
    }
  }
  attr {
    key: "_class"
    value {
      list {
        s: "loc:@bottleneck_4_0/W_conv"
      }
    }
  }
  attr {
    key: "use_locking"
    value {
      b: true
    }
  }
  attr {
    key: "validate_shape"
    value {
      b: true
    }
  }
}
node {
  name: "save/Assign_411"
  op: "Assign"
  input: "bottleneck_4_0/W_exp"
  input: "save/RestoreV2:411"
  attr {
    key: "T"
    value {
      type: DT_FLOAT
    }
  }
  attr {
    key: "_class"
    value {
      list {
        s: "loc:@bottleneck_4_0/W_exp"
      }
    }
  }
  attr {
    key: "use_locking"
    value {
      b: true
    }
  }
  attr {
    key: "validate_shape"
    value {
      b: true
    }
  }
}
node {
  name: "save/Assign_412"
  op: "Assign"
  input: "bottleneck_4_0/W_proj"
  input: "save/RestoreV2:412"
  attr {
    key: "T"
    value {
      type: DT_FLOAT
    }
  }
  attr {
    key: "_class"
    value {
      list {
        s: "loc:@bottleneck_4_0/W_proj"
      }
    }
  }
  attr {
    key: "use_locking"
    value {
      b: true
    }
  }
  attr {
    key: "validate_shape"
    value {
      b: true
    }
  }
}
node {
  name: "save/Assign_413"
  op: "Assign"
  input: "bottleneck_4_0/W_upsample"
  input: "save/RestoreV2:413"
  attr {
    key: "T"
    value {
      type: DT_FLOAT
    }
  }
  attr {
    key: "_class"
    value {
      list {
        s: "loc:@bottleneck_4_0/W_upsample"
      }
    }
  }
  attr {
    key: "use_locking"
    value {
      b: true
    }
  }
  attr {
    key: "validate_shape"
    value {
      b: true
    }
  }
}
node {
  name: "save/Assign_414"
  op: "Assign"
  input: "bottleneck_4_0/b_conv"
  input: "save/RestoreV2:414"
  attr {
    key: "T"
    value {
      type: DT_FLOAT
    }
  }
  attr {
    key: "_class"
    value {
      list {
        s: "loc:@bottleneck_4_0/b_conv"
      }
    }
  }
  attr {
    key: "use_locking"
    value {
      b: true
    }
  }
  attr {
    key: "validate_shape"
    value {
      b: true
    }
  }
}
node {
  name: "save/Assign_415"
  op: "Assign"
  input: "bottleneck_4_1/W_conv"
  input: "save/RestoreV2:415"
  attr {
    key: "T"
    value {
      type: DT_FLOAT
    }
  }
  attr {
    key: "_class"
    value {
      list {
        s: "loc:@bottleneck_4_1/W_conv"
      }
    }
  }
  attr {
    key: "use_locking"
    value {
      b: true
    }
  }
  attr {
    key: "validate_shape"
    value {
      b: true
    }
  }
}
node {
  name: "save/Assign_416"
  op: "Assign"
  input: "bottleneck_4_1/W_exp"
  input: "save/RestoreV2:416"
  attr {
    key: "T"
    value {
      type: DT_FLOAT
    }
  }
  attr {
    key: "_class"
    value {
      list {
        s: "loc:@bottleneck_4_1/W_exp"
      }
    }
  }
  attr {
    key: "use_locking"
    value {
      b: true
    }
  }
  attr {
    key: "validate_shape"
    value {
      b: true
    }
  }
}
node {
  name: "save/Assign_417"
  op: "Assign"
  input: "bottleneck_4_1/W_proj"
  input: "save/RestoreV2:417"
  attr {
    key: "T"
    value {
      type: DT_FLOAT
    }
  }
  attr {
    key: "_class"
    value {
      list {
        s: "loc:@bottleneck_4_1/W_proj"
      }
    }
  }
  attr {
    key: "use_locking"
    value {
      b: true
    }
  }
  attr {
    key: "validate_shape"
    value {
      b: true
    }
  }
}
node {
  name: "save/Assign_418"
  op: "Assign"
  input: "bottleneck_4_1/b_conv"
  input: "save/RestoreV2:418"
  attr {
    key: "T"
    value {
      type: DT_FLOAT
    }
  }
  attr {
    key: "_class"
    value {
      list {
        s: "loc:@bottleneck_4_1/b_conv"
      }
    }
  }
  attr {
    key: "use_locking"
    value {
      b: true
    }
  }
  attr {
    key: "validate_shape"
    value {
      b: true
    }
  }
}
node {
  name: "save/Assign_419"
  op: "Assign"
  input: "bottleneck_4_2/W_conv"
  input: "save/RestoreV2:419"
  attr {
    key: "T"
    value {
      type: DT_FLOAT
    }
  }
  attr {
    key: "_class"
    value {
      list {
        s: "loc:@bottleneck_4_2/W_conv"
      }
    }
  }
  attr {
    key: "use_locking"
    value {
      b: true
    }
  }
  attr {
    key: "validate_shape"
    value {
      b: true
    }
  }
}
node {
  name: "save/Assign_420"
  op: "Assign"
  input: "bottleneck_4_2/W_exp"
  input: "save/RestoreV2:420"
  attr {
    key: "T"
    value {
      type: DT_FLOAT
    }
  }
  attr {
    key: "_class"
    value {
      list {
        s: "loc:@bottleneck_4_2/W_exp"
      }
    }
  }
  attr {
    key: "use_locking"
    value {
      b: true
    }
  }
  attr {
    key: "validate_shape"
    value {
      b: true
    }
  }
}
node {
  name: "save/Assign_421"
  op: "Assign"
  input: "bottleneck_4_2/W_proj"
  input: "save/RestoreV2:421"
  attr {
    key: "T"
    value {
      type: DT_FLOAT
    }
  }
  attr {
    key: "_class"
    value {
      list {
        s: "loc:@bottleneck_4_2/W_proj"
      }
    }
  }
  attr {
    key: "use_locking"
    value {
      b: true
    }
  }
  attr {
    key: "validate_shape"
    value {
      b: true
    }
  }
}
node {
  name: "save/Assign_422"
  op: "Assign"
  input: "bottleneck_4_2/b_conv"
  input: "save/RestoreV2:422"
  attr {
    key: "T"
    value {
      type: DT_FLOAT
    }
  }
  attr {
    key: "_class"
    value {
      list {
        s: "loc:@bottleneck_4_2/b_conv"
      }
    }
  }
  attr {
    key: "use_locking"
    value {
      b: true
    }
  }
  attr {
    key: "validate_shape"
    value {
      b: true
    }
  }
}
node {
  name: "save/Assign_423"
  op: "Assign"
  input: "bottleneck_5_0/W_conv"
  input: "save/RestoreV2:423"
  attr {
    key: "T"
    value {
      type: DT_FLOAT
    }
  }
  attr {
    key: "_class"
    value {
      list {
        s: "loc:@bottleneck_5_0/W_conv"
      }
    }
  }
  attr {
    key: "use_locking"
    value {
      b: true
    }
  }
  attr {
    key: "validate_shape"
    value {
      b: true
    }
  }
}
node {
  name: "save/Assign_424"
  op: "Assign"
  input: "bottleneck_5_0/W_exp"
  input: "save/RestoreV2:424"
  attr {
    key: "T"
    value {
      type: DT_FLOAT
    }
  }
  attr {
    key: "_class"
    value {
      list {
        s: "loc:@bottleneck_5_0/W_exp"
      }
    }
  }
  attr {
    key: "use_locking"
    value {
      b: true
    }
  }
  attr {
    key: "validate_shape"
    value {
      b: true
    }
  }
}
node {
  name: "save/Assign_425"
  op: "Assign"
  input: "bottleneck_5_0/W_proj"
  input: "save/RestoreV2:425"
  attr {
    key: "T"
    value {
      type: DT_FLOAT
    }
  }
  attr {
    key: "_class"
    value {
      list {
        s: "loc:@bottleneck_5_0/W_proj"
      }
    }
  }
  attr {
    key: "use_locking"
    value {
      b: true
    }
  }
  attr {
    key: "validate_shape"
    value {
      b: true
    }
  }
}
node {
  name: "save/Assign_426"
  op: "Assign"
  input: "bottleneck_5_0/W_upsample"
  input: "save/RestoreV2:426"
  attr {
    key: "T"
    value {
      type: DT_FLOAT
    }
  }
  attr {
    key: "_class"
    value {
      list {
        s: "loc:@bottleneck_5_0/W_upsample"
      }
    }
  }
  attr {
    key: "use_locking"
    value {
      b: true
    }
  }
  attr {
    key: "validate_shape"
    value {
      b: true
    }
  }
}
node {
  name: "save/Assign_427"
  op: "Assign"
  input: "bottleneck_5_0/b_conv"
  input: "save/RestoreV2:427"
  attr {
    key: "T"
    value {
      type: DT_FLOAT
    }
  }
  attr {
    key: "_class"
    value {
      list {
        s: "loc:@bottleneck_5_0/b_conv"
      }
    }
  }
  attr {
    key: "use_locking"
    value {
      b: true
    }
  }
  attr {
    key: "validate_shape"
    value {
      b: true
    }
  }
}
node {
  name: "save/Assign_428"
  op: "Assign"
  input: "bottleneck_5_1/W_conv"
  input: "save/RestoreV2:428"
  attr {
    key: "T"
    value {
      type: DT_FLOAT
    }
  }
  attr {
    key: "_class"
    value {
      list {
        s: "loc:@bottleneck_5_1/W_conv"
      }
    }
  }
  attr {
    key: "use_locking"
    value {
      b: true
    }
  }
  attr {
    key: "validate_shape"
    value {
      b: true
    }
  }
}
node {
  name: "save/Assign_429"
  op: "Assign"
  input: "bottleneck_5_1/W_exp"
  input: "save/RestoreV2:429"
  attr {
    key: "T"
    value {
      type: DT_FLOAT
    }
  }
  attr {
    key: "_class"
    value {
      list {
        s: "loc:@bottleneck_5_1/W_exp"
      }
    }
  }
  attr {
    key: "use_locking"
    value {
      b: true
    }
  }
  attr {
    key: "validate_shape"
    value {
      b: true
    }
  }
}
node {
  name: "save/Assign_430"
  op: "Assign"
  input: "bottleneck_5_1/W_proj"
  input: "save/RestoreV2:430"
  attr {
    key: "T"
    value {
      type: DT_FLOAT
    }
  }
  attr {
    key: "_class"
    value {
      list {
        s: "loc:@bottleneck_5_1/W_proj"
      }
    }
  }
  attr {
    key: "use_locking"
    value {
      b: true
    }
  }
  attr {
    key: "validate_shape"
    value {
      b: true
    }
  }
}
node {
  name: "save/Assign_431"
  op: "Assign"
  input: "bottleneck_5_1/b_conv"
  input: "save/RestoreV2:431"
  attr {
    key: "T"
    value {
      type: DT_FLOAT
    }
  }
  attr {
    key: "_class"
    value {
      list {
        s: "loc:@bottleneck_5_1/b_conv"
      }
    }
  }
  attr {
    key: "use_locking"
    value {
      b: true
    }
  }
  attr {
    key: "validate_shape"
    value {
      b: true
    }
  }
}
node {
  name: "save/Assign_432"
  op: "Assign"
  input: "fullconv/biases"
  input: "save/RestoreV2:432"
  attr {
    key: "T"
    value {
      type: DT_FLOAT
    }
  }
  attr {
    key: "_class"
    value {
      list {
        s: "loc:@fullconv/biases"
      }
    }
  }
  attr {
    key: "use_locking"
    value {
      b: true
    }
  }
  attr {
    key: "validate_shape"
    value {
      b: true
    }
  }
}
node {
  name: "save/Assign_433"
  op: "Assign"
  input: "fullconv/weights"
  input: "save/RestoreV2:433"
  attr {
    key: "T"
    value {
      type: DT_FLOAT
    }
  }
  attr {
    key: "_class"
    value {
      list {
        s: "loc:@fullconv/weights"
      }
    }
  }
  attr {
    key: "use_locking"
    value {
      b: true
    }
  }
  attr {
    key: "validate_shape"
    value {
      b: true
    }
  }
}
node {
  name: "save/Assign_434"
  op: "Assign"
  input: "inital/W"
  input: "save/RestoreV2:434"
  attr {
    key: "T"
    value {
      type: DT_FLOAT
    }
  }
  attr {
    key: "_class"
    value {
      list {
        s: "loc:@inital/W"
      }
    }
  }
  attr {
    key: "use_locking"
    value {
      b: true
    }
  }
  attr {
    key: "validate_shape"
    value {
      b: true
    }
  }
}
node {
  name: "save/Assign_435"
  op: "Assign"
  input: "inital/alpha"
  input: "save/RestoreV2:435"
  attr {
    key: "T"
    value {
      type: DT_FLOAT
    }
  }
  attr {
    key: "_class"
    value {
      list {
        s: "loc:@inital/alpha"
      }
    }
  }
  attr {
    key: "use_locking"
    value {
      b: true
    }
  }
  attr {
    key: "validate_shape"
    value {
      b: true
    }
  }
}
node {
  name: "save/Assign_436"
  op: "Assign"
  input: "inital/b"
  input: "save/RestoreV2:436"
  attr {
    key: "T"
    value {
      type: DT_FLOAT
    }
  }
  attr {
    key: "_class"
    value {
      list {
        s: "loc:@inital/b"
      }
    }
  }
  attr {
    key: "use_locking"
    value {
      b: true
    }
  }
  attr {
    key: "validate_shape"
    value {
      b: true
    }
  }
}
node {
  name: "save/restore_all"
  op: "NoOp"
  input: "^save/Assign"
  input: "^save/Assign_1"
  input: "^save/Assign_10"
  input: "^save/Assign_100"
  input: "^save/Assign_101"
  input: "^save/Assign_102"
  input: "^save/Assign_103"
  input: "^save/Assign_104"
  input: "^save/Assign_105"
  input: "^save/Assign_106"
  input: "^save/Assign_107"
  input: "^save/Assign_108"
  input: "^save/Assign_109"
  input: "^save/Assign_11"
  input: "^save/Assign_110"
  input: "^save/Assign_111"
  input: "^save/Assign_112"
  input: "^save/Assign_113"
  input: "^save/Assign_114"
  input: "^save/Assign_115"
  input: "^save/Assign_116"
  input: "^save/Assign_117"
  input: "^save/Assign_118"
  input: "^save/Assign_119"
  input: "^save/Assign_12"
  input: "^save/Assign_120"
  input: "^save/Assign_121"
  input: "^save/Assign_122"
  input: "^save/Assign_123"
  input: "^save/Assign_124"
  input: "^save/Assign_125"
  input: "^save/Assign_126"
  input: "^save/Assign_127"
  input: "^save/Assign_128"
  input: "^save/Assign_129"
  input: "^save/Assign_13"
  input: "^save/Assign_130"
  input: "^save/Assign_131"
  input: "^save/Assign_132"
  input: "^save/Assign_133"
  input: "^save/Assign_134"
  input: "^save/Assign_135"
  input: "^save/Assign_136"
  input: "^save/Assign_137"
  input: "^save/Assign_138"
  input: "^save/Assign_139"
  input: "^save/Assign_14"
  input: "^save/Assign_140"
  input: "^save/Assign_141"
  input: "^save/Assign_142"
  input: "^save/Assign_143"
  input: "^save/Assign_144"
  input: "^save/Assign_145"
  input: "^save/Assign_146"
  input: "^save/Assign_147"
  input: "^save/Assign_148"
  input: "^save/Assign_149"
  input: "^save/Assign_15"
  input: "^save/Assign_150"
  input: "^save/Assign_151"
  input: "^save/Assign_152"
  input: "^save/Assign_153"
  input: "^save/Assign_154"
  input: "^save/Assign_155"
  input: "^save/Assign_156"
  input: "^save/Assign_157"
  input: "^save/Assign_158"
  input: "^save/Assign_159"
  input: "^save/Assign_16"
  input: "^save/Assign_160"
  input: "^save/Assign_161"
  input: "^save/Assign_162"
  input: "^save/Assign_163"
  input: "^save/Assign_164"
  input: "^save/Assign_165"
  input: "^save/Assign_166"
  input: "^save/Assign_167"
  input: "^save/Assign_168"
  input: "^save/Assign_169"
  input: "^save/Assign_17"
  input: "^save/Assign_170"
  input: "^save/Assign_171"
  input: "^save/Assign_172"
  input: "^save/Assign_173"
  input: "^save/Assign_174"
  input: "^save/Assign_175"
  input: "^save/Assign_176"
  input: "^save/Assign_177"
  input: "^save/Assign_178"
  input: "^save/Assign_179"
  input: "^save/Assign_18"
  input: "^save/Assign_180"
  input: "^save/Assign_181"
  input: "^save/Assign_182"
  input: "^save/Assign_183"
  input: "^save/Assign_184"
  input: "^save/Assign_185"
  input: "^save/Assign_186"
  input: "^save/Assign_187"
  input: "^save/Assign_188"
  input: "^save/Assign_189"
  input: "^save/Assign_19"
  input: "^save/Assign_190"
  input: "^save/Assign_191"
  input: "^save/Assign_192"
  input: "^save/Assign_193"
  input: "^save/Assign_194"
  input: "^save/Assign_195"
  input: "^save/Assign_196"
  input: "^save/Assign_197"
  input: "^save/Assign_198"
  input: "^save/Assign_199"
  input: "^save/Assign_2"
  input: "^save/Assign_20"
  input: "^save/Assign_200"
  input: "^save/Assign_201"
  input: "^save/Assign_202"
  input: "^save/Assign_203"
  input: "^save/Assign_204"
  input: "^save/Assign_205"
  input: "^save/Assign_206"
  input: "^save/Assign_207"
  input: "^save/Assign_208"
  input: "^save/Assign_209"
  input: "^save/Assign_21"
  input: "^save/Assign_210"
  input: "^save/Assign_211"
  input: "^save/Assign_212"
  input: "^save/Assign_213"
  input: "^save/Assign_214"
  input: "^save/Assign_215"
  input: "^save/Assign_216"
  input: "^save/Assign_217"
  input: "^save/Assign_218"
  input: "^save/Assign_219"
  input: "^save/Assign_22"
  input: "^save/Assign_220"
  input: "^save/Assign_221"
  input: "^save/Assign_222"
  input: "^save/Assign_223"
  input: "^save/Assign_224"
  input: "^save/Assign_225"
  input: "^save/Assign_226"
  input: "^save/Assign_227"
  input: "^save/Assign_228"
  input: "^save/Assign_229"
  input: "^save/Assign_23"
  input: "^save/Assign_230"
  input: "^save/Assign_231"
  input: "^save/Assign_232"
  input: "^save/Assign_233"
  input: "^save/Assign_234"
  input: "^save/Assign_235"
  input: "^save/Assign_236"
  input: "^save/Assign_237"
  input: "^save/Assign_238"
  input: "^save/Assign_239"
  input: "^save/Assign_24"
  input: "^save/Assign_240"
  input: "^save/Assign_241"
  input: "^save/Assign_242"
  input: "^save/Assign_243"
  input: "^save/Assign_244"
  input: "^save/Assign_245"
  input: "^save/Assign_246"
  input: "^save/Assign_247"
  input: "^save/Assign_248"
  input: "^save/Assign_249"
  input: "^save/Assign_25"
  input: "^save/Assign_250"
  input: "^save/Assign_251"
  input: "^save/Assign_252"
  input: "^save/Assign_253"
  input: "^save/Assign_254"
  input: "^save/Assign_255"
  input: "^save/Assign_256"
  input: "^save/Assign_257"
  input: "^save/Assign_258"
  input: "^save/Assign_259"
  input: "^save/Assign_26"
  input: "^save/Assign_260"
  input: "^save/Assign_261"
  input: "^save/Assign_262"
  input: "^save/Assign_263"
  input: "^save/Assign_264"
  input: "^save/Assign_265"
  input: "^save/Assign_266"
  input: "^save/Assign_267"
  input: "^save/Assign_268"
  input: "^save/Assign_269"
  input: "^save/Assign_27"
  input: "^save/Assign_270"
  input: "^save/Assign_271"
  input: "^save/Assign_272"
  input: "^save/Assign_273"
  input: "^save/Assign_274"
  input: "^save/Assign_275"
  input: "^save/Assign_276"
  input: "^save/Assign_277"
  input: "^save/Assign_278"
  input: "^save/Assign_279"
  input: "^save/Assign_28"
  input: "^save/Assign_280"
  input: "^save/Assign_281"
  input: "^save/Assign_282"
  input: "^save/Assign_283"
  input: "^save/Assign_284"
  input: "^save/Assign_285"
  input: "^save/Assign_286"
  input: "^save/Assign_287"
  input: "^save/Assign_288"
  input: "^save/Assign_289"
  input: "^save/Assign_29"
  input: "^save/Assign_290"
  input: "^save/Assign_291"
  input: "^save/Assign_292"
  input: "^save/Assign_293"
  input: "^save/Assign_294"
  input: "^save/Assign_295"
  input: "^save/Assign_296"
  input: "^save/Assign_297"
  input: "^save/Assign_298"
  input: "^save/Assign_299"
  input: "^save/Assign_3"
  input: "^save/Assign_30"
  input: "^save/Assign_300"
  input: "^save/Assign_301"
  input: "^save/Assign_302"
  input: "^save/Assign_303"
  input: "^save/Assign_304"
  input: "^save/Assign_305"
  input: "^save/Assign_306"
  input: "^save/Assign_307"
  input: "^save/Assign_308"
  input: "^save/Assign_309"
  input: "^save/Assign_31"
  input: "^save/Assign_310"
  input: "^save/Assign_311"
  input: "^save/Assign_312"
  input: "^save/Assign_313"
  input: "^save/Assign_314"
  input: "^save/Assign_315"
  input: "^save/Assign_316"
  input: "^save/Assign_317"
  input: "^save/Assign_318"
  input: "^save/Assign_319"
  input: "^save/Assign_32"
  input: "^save/Assign_320"
  input: "^save/Assign_321"
  input: "^save/Assign_322"
  input: "^save/Assign_323"
  input: "^save/Assign_324"
  input: "^save/Assign_325"
  input: "^save/Assign_326"
  input: "^save/Assign_327"
  input: "^save/Assign_328"
  input: "^save/Assign_329"
  input: "^save/Assign_33"
  input: "^save/Assign_330"
  input: "^save/Assign_331"
  input: "^save/Assign_332"
  input: "^save/Assign_333"
  input: "^save/Assign_334"
  input: "^save/Assign_335"
  input: "^save/Assign_336"
  input: "^save/Assign_337"
  input: "^save/Assign_338"
  input: "^save/Assign_339"
  input: "^save/Assign_34"
  input: "^save/Assign_340"
  input: "^save/Assign_341"
  input: "^save/Assign_342"
  input: "^save/Assign_343"
  input: "^save/Assign_344"
  input: "^save/Assign_345"
  input: "^save/Assign_346"
  input: "^save/Assign_347"
  input: "^save/Assign_348"
  input: "^save/Assign_349"
  input: "^save/Assign_35"
  input: "^save/Assign_350"
  input: "^save/Assign_351"
  input: "^save/Assign_352"
  input: "^save/Assign_353"
  input: "^save/Assign_354"
  input: "^save/Assign_355"
  input: "^save/Assign_356"
  input: "^save/Assign_357"
  input: "^save/Assign_358"
  input: "^save/Assign_359"
  input: "^save/Assign_36"
  input: "^save/Assign_360"
  input: "^save/Assign_361"
  input: "^save/Assign_362"
  input: "^save/Assign_363"
  input: "^save/Assign_364"
  input: "^save/Assign_365"
  input: "^save/Assign_366"
  input: "^save/Assign_367"
  input: "^save/Assign_368"
  input: "^save/Assign_369"
  input: "^save/Assign_37"
  input: "^save/Assign_370"
  input: "^save/Assign_371"
  input: "^save/Assign_372"
  input: "^save/Assign_373"
  input: "^save/Assign_374"
  input: "^save/Assign_375"
  input: "^save/Assign_376"
  input: "^save/Assign_377"
  input: "^save/Assign_378"
  input: "^save/Assign_379"
  input: "^save/Assign_38"
  input: "^save/Assign_380"
  input: "^save/Assign_381"
  input: "^save/Assign_382"
  input: "^save/Assign_383"
  input: "^save/Assign_384"
  input: "^save/Assign_385"
  input: "^save/Assign_386"
  input: "^save/Assign_387"
  input: "^save/Assign_388"
  input: "^save/Assign_389"
  input: "^save/Assign_39"
  input: "^save/Assign_390"
  input: "^save/Assign_391"
  input: "^save/Assign_392"
  input: "^save/Assign_393"
  input: "^save/Assign_394"
  input: "^save/Assign_395"
  input: "^save/Assign_396"
  input: "^save/Assign_397"
  input: "^save/Assign_398"
  input: "^save/Assign_399"
  input: "^save/Assign_4"
  input: "^save/Assign_40"
  input: "^save/Assign_400"
  input: "^save/Assign_401"
  input: "^save/Assign_402"
  input: "^save/Assign_403"
  input: "^save/Assign_404"
  input: "^save/Assign_405"
  input: "^save/Assign_406"
  input: "^save/Assign_407"
  input: "^save/Assign_408"
  input: "^save/Assign_409"
  input: "^save/Assign_41"
  input: "^save/Assign_410"
  input: "^save/Assign_411"
  input: "^save/Assign_412"
  input: "^save/Assign_413"
  input: "^save/Assign_414"
  input: "^save/Assign_415"
  input: "^save/Assign_416"
  input: "^save/Assign_417"
  input: "^save/Assign_418"
  input: "^save/Assign_419"
  input: "^save/Assign_42"
  input: "^save/Assign_420"
  input: "^save/Assign_421"
  input: "^save/Assign_422"
  input: "^save/Assign_423"
  input: "^save/Assign_424"
  input: "^save/Assign_425"
  input: "^save/Assign_426"
  input: "^save/Assign_427"
  input: "^save/Assign_428"
  input: "^save/Assign_429"
  input: "^save/Assign_43"
  input: "^save/Assign_430"
  input: "^save/Assign_431"
  input: "^save/Assign_432"
  input: "^save/Assign_433"
  input: "^save/Assign_434"
  input: "^save/Assign_435"
  input: "^save/Assign_436"
  input: "^save/Assign_44"
  input: "^save/Assign_45"
  input: "^save/Assign_46"
  input: "^save/Assign_47"
  input: "^save/Assign_48"
  input: "^save/Assign_49"
  input: "^save/Assign_5"
  input: "^save/Assign_50"
  input: "^save/Assign_51"
  input: "^save/Assign_52"
  input: "^save/Assign_53"
  input: "^save/Assign_54"
  input: "^save/Assign_55"
  input: "^save/Assign_56"
  input: "^save/Assign_57"
  input: "^save/Assign_58"
  input: "^save/Assign_59"
  input: "^save/Assign_6"
  input: "^save/Assign_60"
  input: "^save/Assign_61"
  input: "^save/Assign_62"
  input: "^save/Assign_63"
  input: "^save/Assign_64"
  input: "^save/Assign_65"
  input: "^save/Assign_66"
  input: "^save/Assign_67"
  input: "^save/Assign_68"
  input: "^save/Assign_69"
  input: "^save/Assign_7"
  input: "^save/Assign_70"
  input: "^save/Assign_71"
  input: "^save/Assign_72"
  input: "^save/Assign_73"
  input: "^save/Assign_74"
  input: "^save/Assign_75"
  input: "^save/Assign_76"
  input: "^save/Assign_77"
  input: "^save/Assign_78"
  input: "^save/Assign_79"
  input: "^save/Assign_8"
  input: "^save/Assign_80"
  input: "^save/Assign_81"
  input: "^save/Assign_82"
  input: "^save/Assign_83"
  input: "^save/Assign_84"
  input: "^save/Assign_85"
  input: "^save/Assign_86"
  input: "^save/Assign_87"
  input: "^save/Assign_88"
  input: "^save/Assign_89"
  input: "^save/Assign_9"
  input: "^save/Assign_90"
  input: "^save/Assign_91"
  input: "^save/Assign_92"
  input: "^save/Assign_93"
  input: "^save/Assign_94"
  input: "^save/Assign_95"
  input: "^save/Assign_96"
  input: "^save/Assign_97"
  input: "^save/Assign_98"
  input: "^save/Assign_99"
}
node {
  name: "init"
  op: "NoOp"
  input: "^BatchNorm/beta/Assign"
  input: "^BatchNorm/moving_mean/Assign"
  input: "^BatchNorm/moving_variance/Assign"
  input: "^BatchNorm_1/beta/Assign"
  input: "^BatchNorm_1/moving_mean/Assign"
  input: "^BatchNorm_1/moving_variance/Assign"
  input: "^BatchNorm_10/beta/Assign"
  input: "^BatchNorm_10/moving_mean/Assign"
  input: "^BatchNorm_10/moving_variance/Assign"
  input: "^BatchNorm_11/beta/Assign"
  input: "^BatchNorm_11/moving_mean/Assign"
  input: "^BatchNorm_11/moving_variance/Assign"
  input: "^BatchNorm_12/beta/Assign"
  input: "^BatchNorm_12/moving_mean/Assign"
  input: "^BatchNorm_12/moving_variance/Assign"
  input: "^BatchNorm_13/beta/Assign"
  input: "^BatchNorm_13/moving_mean/Assign"
  input: "^BatchNorm_13/moving_variance/Assign"
  input: "^BatchNorm_14/beta/Assign"
  input: "^BatchNorm_14/moving_mean/Assign"
  input: "^BatchNorm_14/moving_variance/Assign"
  input: "^BatchNorm_15/beta/Assign"
  input: "^BatchNorm_15/moving_mean/Assign"
  input: "^BatchNorm_15/moving_variance/Assign"
  input: "^BatchNorm_16/beta/Assign"
  input: "^BatchNorm_16/moving_mean/Assign"
  input: "^BatchNorm_16/moving_variance/Assign"
  input: "^BatchNorm_17/beta/Assign"
  input: "^BatchNorm_17/moving_mean/Assign"
  input: "^BatchNorm_17/moving_variance/Assign"
  input: "^BatchNorm_18/beta/Assign"
  input: "^BatchNorm_18/moving_mean/Assign"
  input: "^BatchNorm_18/moving_variance/Assign"
  input: "^BatchNorm_19/beta/Assign"
  input: "^BatchNorm_19/moving_mean/Assign"
  input: "^BatchNorm_19/moving_variance/Assign"
  input: "^BatchNorm_2/beta/Assign"
  input: "^BatchNorm_2/moving_mean/Assign"
  input: "^BatchNorm_2/moving_variance/Assign"
  input: "^BatchNorm_20/beta/Assign"
  input: "^BatchNorm_20/moving_mean/Assign"
  input: "^BatchNorm_20/moving_variance/Assign"
  input: "^BatchNorm_21/beta/Assign"
  input: "^BatchNorm_21/moving_mean/Assign"
  input: "^BatchNorm_21/moving_variance/Assign"
  input: "^BatchNorm_22/beta/Assign"
  input: "^BatchNorm_22/moving_mean/Assign"
  input: "^BatchNorm_22/moving_variance/Assign"
  input: "^BatchNorm_23/beta/Assign"
  input: "^BatchNorm_23/moving_mean/Assign"
  input: "^BatchNorm_23/moving_variance/Assign"
  input: "^BatchNorm_24/beta/Assign"
  input: "^BatchNorm_24/moving_mean/Assign"
  input: "^BatchNorm_24/moving_variance/Assign"
  input: "^BatchNorm_25/beta/Assign"
  input: "^BatchNorm_25/moving_mean/Assign"
  input: "^BatchNorm_25/moving_variance/Assign"
  input: "^BatchNorm_26/beta/Assign"
  input: "^BatchNorm_26/moving_mean/Assign"
  input: "^BatchNorm_26/moving_variance/Assign"
  input: "^BatchNorm_27/beta/Assign"
  input: "^BatchNorm_27/moving_mean/Assign"
  input: "^BatchNorm_27/moving_variance/Assign"
  input: "^BatchNorm_28/beta/Assign"
  input: "^BatchNorm_28/moving_mean/Assign"
  input: "^BatchNorm_28/moving_variance/Assign"
  input: "^BatchNorm_29/beta/Assign"
  input: "^BatchNorm_29/moving_mean/Assign"
  input: "^BatchNorm_29/moving_variance/Assign"
  input: "^BatchNorm_3/beta/Assign"
  input: "^BatchNorm_3/moving_mean/Assign"
  input: "^BatchNorm_3/moving_variance/Assign"
  input: "^BatchNorm_30/beta/Assign"
  input: "^BatchNorm_30/moving_mean/Assign"
  input: "^BatchNorm_30/moving_variance/Assign"
  input: "^BatchNorm_31/beta/Assign"
  input: "^BatchNorm_31/moving_mean/Assign"
  input: "^BatchNorm_31/moving_variance/Assign"
  input: "^BatchNorm_32/beta/Assign"
  input: "^BatchNorm_32/moving_mean/Assign"
  input: "^BatchNorm_32/moving_variance/Assign"
  input: "^BatchNorm_33/beta/Assign"
  input: "^BatchNorm_33/moving_mean/Assign"
  input: "^BatchNorm_33/moving_variance/Assign"
  input: "^BatchNorm_34/beta/Assign"
  input: "^BatchNorm_34/moving_mean/Assign"
  input: "^BatchNorm_34/moving_variance/Assign"
  input: "^BatchNorm_35/beta/Assign"
  input: "^BatchNorm_35/moving_mean/Assign"
  input: "^BatchNorm_35/moving_variance/Assign"
  input: "^BatchNorm_36/beta/Assign"
  input: "^BatchNorm_36/moving_mean/Assign"
  input: "^BatchNorm_36/moving_variance/Assign"
  input: "^BatchNorm_37/beta/Assign"
  input: "^BatchNorm_37/moving_mean/Assign"
  input: "^BatchNorm_37/moving_variance/Assign"
  input: "^BatchNorm_38/beta/Assign"
  input: "^BatchNorm_38/moving_mean/Assign"
  input: "^BatchNorm_38/moving_variance/Assign"
  input: "^BatchNorm_39/beta/Assign"
  input: "^BatchNorm_39/moving_mean/Assign"
  input: "^BatchNorm_39/moving_variance/Assign"
  input: "^BatchNorm_4/beta/Assign"
  input: "^BatchNorm_4/moving_mean/Assign"
  input: "^BatchNorm_4/moving_variance/Assign"
  input: "^BatchNorm_40/beta/Assign"
  input: "^BatchNorm_40/moving_mean/Assign"
  input: "^BatchNorm_40/moving_variance/Assign"
  input: "^BatchNorm_41/beta/Assign"
  input: "^BatchNorm_41/moving_mean/Assign"
  input: "^BatchNorm_41/moving_variance/Assign"
  input: "^BatchNorm_42/beta/Assign"
  input: "^BatchNorm_42/moving_mean/Assign"
  input: "^BatchNorm_42/moving_variance/Assign"
  input: "^BatchNorm_43/beta/Assign"
  input: "^BatchNorm_43/moving_mean/Assign"
  input: "^BatchNorm_43/moving_variance/Assign"
  input: "^BatchNorm_44/beta/Assign"
  input: "^BatchNorm_44/moving_mean/Assign"
  input: "^BatchNorm_44/moving_variance/Assign"
  input: "^BatchNorm_45/beta/Assign"
  input: "^BatchNorm_45/moving_mean/Assign"
  input: "^BatchNorm_45/moving_variance/Assign"
  input: "^BatchNorm_46/beta/Assign"
  input: "^BatchNorm_46/moving_mean/Assign"
  input: "^BatchNorm_46/moving_variance/Assign"
  input: "^BatchNorm_47/beta/Assign"
  input: "^BatchNorm_47/moving_mean/Assign"
  input: "^BatchNorm_47/moving_variance/Assign"
  input: "^BatchNorm_48/beta/Assign"
  input: "^BatchNorm_48/moving_mean/Assign"
  input: "^BatchNorm_48/moving_variance/Assign"
  input: "^BatchNorm_49/beta/Assign"
  input: "^BatchNorm_49/moving_mean/Assign"
  input: "^BatchNorm_49/moving_variance/Assign"
  input: "^BatchNorm_5/beta/Assign"
  input: "^BatchNorm_5/moving_mean/Assign"
  input: "^BatchNorm_5/moving_variance/Assign"
  input: "^BatchNorm_50/beta/Assign"
  input: "^BatchNorm_50/moving_mean/Assign"
  input: "^BatchNorm_50/moving_variance/Assign"
  input: "^BatchNorm_51/beta/Assign"
  input: "^BatchNorm_51/moving_mean/Assign"
  input: "^BatchNorm_51/moving_variance/Assign"
  input: "^BatchNorm_52/beta/Assign"
  input: "^BatchNorm_52/moving_mean/Assign"
  input: "^BatchNorm_52/moving_variance/Assign"
  input: "^BatchNorm_53/beta/Assign"
  input: "^BatchNorm_53/moving_mean/Assign"
  input: "^BatchNorm_53/moving_variance/Assign"
  input: "^BatchNorm_54/beta/Assign"
  input: "^BatchNorm_54/moving_mean/Assign"
  input: "^BatchNorm_54/moving_variance/Assign"
  input: "^BatchNorm_55/beta/Assign"
  input: "^BatchNorm_55/moving_mean/Assign"
  input: "^BatchNorm_55/moving_variance/Assign"
  input: "^BatchNorm_56/beta/Assign"
  input: "^BatchNorm_56/moving_mean/Assign"
  input: "^BatchNorm_56/moving_variance/Assign"
  input: "^BatchNorm_57/beta/Assign"
  input: "^BatchNorm_57/moving_mean/Assign"
  input: "^BatchNorm_57/moving_variance/Assign"
  input: "^BatchNorm_58/beta/Assign"
  input: "^BatchNorm_58/moving_mean/Assign"
  input: "^BatchNorm_58/moving_variance/Assign"
  input: "^BatchNorm_59/beta/Assign"
  input: "^BatchNorm_59/moving_mean/Assign"
  input: "^BatchNorm_59/moving_variance/Assign"
  input: "^BatchNorm_6/beta/Assign"
  input: "^BatchNorm_6/moving_mean/Assign"
  input: "^BatchNorm_6/moving_variance/Assign"
  input: "^BatchNorm_60/beta/Assign"
  input: "^BatchNorm_60/moving_mean/Assign"
  input: "^BatchNorm_60/moving_variance/Assign"
  input: "^BatchNorm_61/beta/Assign"
  input: "^BatchNorm_61/moving_mean/Assign"
  input: "^BatchNorm_61/moving_variance/Assign"
  input: "^BatchNorm_62/beta/Assign"
  input: "^BatchNorm_62/moving_mean/Assign"
  input: "^BatchNorm_62/moving_variance/Assign"
  input: "^BatchNorm_63/beta/Assign"
  input: "^BatchNorm_63/moving_mean/Assign"
  input: "^BatchNorm_63/moving_variance/Assign"
  input: "^BatchNorm_64/beta/Assign"
  input: "^BatchNorm_64/moving_mean/Assign"
  input: "^BatchNorm_64/moving_variance/Assign"
  input: "^BatchNorm_65/beta/Assign"
  input: "^BatchNorm_65/moving_mean/Assign"
  input: "^BatchNorm_65/moving_variance/Assign"
  input: "^BatchNorm_66/beta/Assign"
  input: "^BatchNorm_66/moving_mean/Assign"
  input: "^BatchNorm_66/moving_variance/Assign"
  input: "^BatchNorm_67/beta/Assign"
  input: "^BatchNorm_67/moving_mean/Assign"
  input: "^BatchNorm_67/moving_variance/Assign"
  input: "^BatchNorm_68/beta/Assign"
  input: "^BatchNorm_68/moving_mean/Assign"
  input: "^BatchNorm_68/moving_variance/Assign"
  input: "^BatchNorm_69/beta/Assign"
  input: "^BatchNorm_69/moving_mean/Assign"
  input: "^BatchNorm_69/moving_variance/Assign"
  input: "^BatchNorm_7/beta/Assign"
  input: "^BatchNorm_7/moving_mean/Assign"
  input: "^BatchNorm_7/moving_variance/Assign"
  input: "^BatchNorm_70/beta/Assign"
  input: "^BatchNorm_70/moving_mean/Assign"
  input: "^BatchNorm_70/moving_variance/Assign"
  input: "^BatchNorm_71/beta/Assign"
  input: "^BatchNorm_71/moving_mean/Assign"
  input: "^BatchNorm_71/moving_variance/Assign"
  input: "^BatchNorm_72/beta/Assign"
  input: "^BatchNorm_72/moving_mean/Assign"
  input: "^BatchNorm_72/moving_variance/Assign"
  input: "^BatchNorm_73/beta/Assign"
  input: "^BatchNorm_73/moving_mean/Assign"
  input: "^BatchNorm_73/moving_variance/Assign"
  input: "^BatchNorm_74/beta/Assign"
  input: "^BatchNorm_74/moving_mean/Assign"
  input: "^BatchNorm_74/moving_variance/Assign"
  input: "^BatchNorm_75/beta/Assign"
  input: "^BatchNorm_75/moving_mean/Assign"
  input: "^BatchNorm_75/moving_variance/Assign"
  input: "^BatchNorm_76/beta/Assign"
  input: "^BatchNorm_76/moving_mean/Assign"
  input: "^BatchNorm_76/moving_variance/Assign"
  input: "^BatchNorm_77/beta/Assign"
  input: "^BatchNorm_77/moving_mean/Assign"
  input: "^BatchNorm_77/moving_variance/Assign"
  input: "^BatchNorm_78/beta/Assign"
  input: "^BatchNorm_78/moving_mean/Assign"
  input: "^BatchNorm_78/moving_variance/Assign"
  input: "^BatchNorm_79/beta/Assign"
  input: "^BatchNorm_79/moving_mean/Assign"
  input: "^BatchNorm_79/moving_variance/Assign"
  input: "^BatchNorm_8/beta/Assign"
  input: "^BatchNorm_8/moving_mean/Assign"
  input: "^BatchNorm_8/moving_variance/Assign"
  input: "^BatchNorm_80/beta/Assign"
  input: "^BatchNorm_80/moving_mean/Assign"
  input: "^BatchNorm_80/moving_variance/Assign"
  input: "^BatchNorm_81/beta/Assign"
  input: "^BatchNorm_81/moving_mean/Assign"
  input: "^BatchNorm_81/moving_variance/Assign"
  input: "^BatchNorm_82/beta/Assign"
  input: "^BatchNorm_82/moving_mean/Assign"
  input: "^BatchNorm_82/moving_variance/Assign"
  input: "^BatchNorm_83/beta/Assign"
  input: "^BatchNorm_83/moving_mean/Assign"
  input: "^BatchNorm_83/moving_variance/Assign"
  input: "^BatchNorm_9/beta/Assign"
  input: "^BatchNorm_9/moving_mean/Assign"
  input: "^BatchNorm_9/moving_variance/Assign"
  input: "^bottleneck_1_0/W_conv/Assign"
  input: "^bottleneck_1_0/W_exp/Assign"
  input: "^bottleneck_1_0/W_proj/Assign"
  input: "^bottleneck_1_0/b_conv/Assign"
  input: "^bottleneck_1_0/conv/alpha/Assign"
  input: "^bottleneck_1_0/output/alpha/Assign"
  input: "^bottleneck_1_0/proj/alpha/Assign"
  input: "^bottleneck_1_1/W_conv/Assign"
  input: "^bottleneck_1_1/W_exp/Assign"
  input: "^bottleneck_1_1/W_proj/Assign"
  input: "^bottleneck_1_1/b_conv/Assign"
  input: "^bottleneck_1_1/conv/alpha/Assign"
  input: "^bottleneck_1_1/output/alpha/Assign"
  input: "^bottleneck_1_1/proj/alpha/Assign"
  input: "^bottleneck_1_2/W_conv/Assign"
  input: "^bottleneck_1_2/W_exp/Assign"
  input: "^bottleneck_1_2/W_proj/Assign"
  input: "^bottleneck_1_2/b_conv/Assign"
  input: "^bottleneck_1_2/conv/alpha/Assign"
  input: "^bottleneck_1_2/output/alpha/Assign"
  input: "^bottleneck_1_2/proj/alpha/Assign"
  input: "^bottleneck_1_3/W_conv/Assign"
  input: "^bottleneck_1_3/W_exp/Assign"
  input: "^bottleneck_1_3/W_proj/Assign"
  input: "^bottleneck_1_3/b_conv/Assign"
  input: "^bottleneck_1_3/conv/alpha/Assign"
  input: "^bottleneck_1_3/output/alpha/Assign"
  input: "^bottleneck_1_3/proj/alpha/Assign"
  input: "^bottleneck_1_4/W_conv/Assign"
  input: "^bottleneck_1_4/W_exp/Assign"
  input: "^bottleneck_1_4/W_proj/Assign"
  input: "^bottleneck_1_4/b_conv/Assign"
  input: "^bottleneck_1_4/conv/alpha/Assign"
  input: "^bottleneck_1_4/output/alpha/Assign"
  input: "^bottleneck_1_4/proj/alpha/Assign"
  input: "^bottleneck_2_0/W_conv/Assign"
  input: "^bottleneck_2_0/W_exp/Assign"
  input: "^bottleneck_2_0/W_proj/Assign"
  input: "^bottleneck_2_0/b_conv/Assign"
  input: "^bottleneck_2_0/conv/alpha/Assign"
  input: "^bottleneck_2_0/output/alpha/Assign"
  input: "^bottleneck_2_0/proj/alpha/Assign"
  input: "^bottleneck_2_1/W_conv/Assign"
  input: "^bottleneck_2_1/W_exp/Assign"
  input: "^bottleneck_2_1/W_proj/Assign"
  input: "^bottleneck_2_1/b_conv/Assign"
  input: "^bottleneck_2_1/conv/alpha/Assign"
  input: "^bottleneck_2_1/output/alpha/Assign"
  input: "^bottleneck_2_1/proj/alpha/Assign"
  input: "^bottleneck_2_2/W_conv/Assign"
  input: "^bottleneck_2_2/W_exp/Assign"
  input: "^bottleneck_2_2/W_proj/Assign"
  input: "^bottleneck_2_2/b_conv/Assign"
  input: "^bottleneck_2_2/conv/alpha/Assign"
  input: "^bottleneck_2_2/output/alpha/Assign"
  input: "^bottleneck_2_2/proj/alpha/Assign"
  input: "^bottleneck_2_3/W_conv1/Assign"
  input: "^bottleneck_2_3/W_conv2/Assign"
  input: "^bottleneck_2_3/W_exp/Assign"
  input: "^bottleneck_2_3/W_proj/Assign"
  input: "^bottleneck_2_3/b_conv2/Assign"
  input: "^bottleneck_2_3/conv/alpha/Assign"
  input: "^bottleneck_2_3/output/alpha/Assign"
  input: "^bottleneck_2_3/proj/alpha/Assign"
  input: "^bottleneck_2_4/W_conv/Assign"
  input: "^bottleneck_2_4/W_exp/Assign"
  input: "^bottleneck_2_4/W_proj/Assign"
  input: "^bottleneck_2_4/b_conv/Assign"
  input: "^bottleneck_2_4/conv/alpha/Assign"
  input: "^bottleneck_2_4/output/alpha/Assign"
  input: "^bottleneck_2_4/proj/alpha/Assign"
  input: "^bottleneck_2_5/W_conv/Assign"
  input: "^bottleneck_2_5/W_exp/Assign"
  input: "^bottleneck_2_5/W_proj/Assign"
  input: "^bottleneck_2_5/b_conv/Assign"
  input: "^bottleneck_2_5/conv/alpha/Assign"
  input: "^bottleneck_2_5/output/alpha/Assign"
  input: "^bottleneck_2_5/proj/alpha/Assign"
  input: "^bottleneck_2_6/W_conv/Assign"
  input: "^bottleneck_2_6/W_exp/Assign"
  input: "^bottleneck_2_6/W_proj/Assign"
  input: "^bottleneck_2_6/b_conv/Assign"
  input: "^bottleneck_2_6/conv/alpha/Assign"
  input: "^bottleneck_2_6/output/alpha/Assign"
  input: "^bottleneck_2_6/proj/alpha/Assign"
  input: "^bottleneck_2_7/W_conv1/Assign"
  input: "^bottleneck_2_7/W_conv2/Assign"
  input: "^bottleneck_2_7/W_exp/Assign"
  input: "^bottleneck_2_7/W_proj/Assign"
  input: "^bottleneck_2_7/b_conv2/Assign"
  input: "^bottleneck_2_7/conv/alpha/Assign"
  input: "^bottleneck_2_7/output/alpha/Assign"
  input: "^bottleneck_2_7/proj/alpha/Assign"
  input: "^bottleneck_2_8/W_conv/Assign"
  input: "^bottleneck_2_8/W_exp/Assign"
  input: "^bottleneck_2_8/W_proj/Assign"
  input: "^bottleneck_2_8/b_conv/Assign"
  input: "^bottleneck_2_8/conv/alpha/Assign"
  input: "^bottleneck_2_8/output/alpha/Assign"
  input: "^bottleneck_2_8/proj/alpha/Assign"
  input: "^bottleneck_3_1/W_conv/Assign"
  input: "^bottleneck_3_1/W_exp/Assign"
  input: "^bottleneck_3_1/W_proj/Assign"
  input: "^bottleneck_3_1/b_conv/Assign"
  input: "^bottleneck_3_1/conv/alpha/Assign"
  input: "^bottleneck_3_1/output/alpha/Assign"
  input: "^bottleneck_3_1/proj/alpha/Assign"
  input: "^bottleneck_3_2/W_conv/Assign"
  input: "^bottleneck_3_2/W_exp/Assign"
  input: "^bottleneck_3_2/W_proj/Assign"
  input: "^bottleneck_3_2/b_conv/Assign"
  input: "^bottleneck_3_2/conv/alpha/Assign"
  input: "^bottleneck_3_2/output/alpha/Assign"
  input: "^bottleneck_3_2/proj/alpha/Assign"
  input: "^bottleneck_3_3/W_conv1/Assign"
  input: "^bottleneck_3_3/W_conv2/Assign"
  input: "^bottleneck_3_3/W_exp/Assign"
  input: "^bottleneck_3_3/W_proj/Assign"
  input: "^bottleneck_3_3/b_conv2/Assign"
  input: "^bottleneck_3_3/conv/alpha/Assign"
  input: "^bottleneck_3_3/output/alpha/Assign"
  input: "^bottleneck_3_3/proj/alpha/Assign"
  input: "^bottleneck_3_4/W_conv/Assign"
  input: "^bottleneck_3_4/W_exp/Assign"
  input: "^bottleneck_3_4/W_proj/Assign"
  input: "^bottleneck_3_4/b_conv/Assign"
  input: "^bottleneck_3_4/conv/alpha/Assign"
  input: "^bottleneck_3_4/output/alpha/Assign"
  input: "^bottleneck_3_4/proj/alpha/Assign"
  input: "^bottleneck_3_5/W_conv/Assign"
  input: "^bottleneck_3_5/W_exp/Assign"
  input: "^bottleneck_3_5/W_proj/Assign"
  input: "^bottleneck_3_5/b_conv/Assign"
  input: "^bottleneck_3_5/conv/alpha/Assign"
  input: "^bottleneck_3_5/output/alpha/Assign"
  input: "^bottleneck_3_5/proj/alpha/Assign"
  input: "^bottleneck_3_6/W_conv/Assign"
  input: "^bottleneck_3_6/W_exp/Assign"
  input: "^bottleneck_3_6/W_proj/Assign"
  input: "^bottleneck_3_6/b_conv/Assign"
  input: "^bottleneck_3_6/conv/alpha/Assign"
  input: "^bottleneck_3_6/output/alpha/Assign"
  input: "^bottleneck_3_6/proj/alpha/Assign"
  input: "^bottleneck_3_7/W_conv1/Assign"
  input: "^bottleneck_3_7/W_conv2/Assign"
  input: "^bottleneck_3_7/W_exp/Assign"
  input: "^bottleneck_3_7/W_proj/Assign"
  input: "^bottleneck_3_7/b_conv2/Assign"
  input: "^bottleneck_3_7/conv/alpha/Assign"
  input: "^bottleneck_3_7/output/alpha/Assign"
  input: "^bottleneck_3_7/proj/alpha/Assign"
  input: "^bottleneck_3_8/W_conv/Assign"
  input: "^bottleneck_3_8/W_exp/Assign"
  input: "^bottleneck_3_8/W_proj/Assign"
  input: "^bottleneck_3_8/b_conv/Assign"
  input: "^bottleneck_3_8/conv/alpha/Assign"
  input: "^bottleneck_3_8/output/alpha/Assign"
  input: "^bottleneck_3_8/proj/alpha/Assign"
  input: "^bottleneck_4_0/W_conv/Assign"
  input: "^bottleneck_4_0/W_exp/Assign"
  input: "^bottleneck_4_0/W_proj/Assign"
  input: "^bottleneck_4_0/W_upsample/Assign"
  input: "^bottleneck_4_0/b_conv/Assign"
  input: "^bottleneck_4_1/W_conv/Assign"
  input: "^bottleneck_4_1/W_exp/Assign"
  input: "^bottleneck_4_1/W_proj/Assign"
  input: "^bottleneck_4_1/b_conv/Assign"
  input: "^bottleneck_4_2/W_conv/Assign"
  input: "^bottleneck_4_2/W_exp/Assign"
  input: "^bottleneck_4_2/W_proj/Assign"
  input: "^bottleneck_4_2/b_conv/Assign"
  input: "^bottleneck_5_0/W_conv/Assign"
  input: "^bottleneck_5_0/W_exp/Assign"
  input: "^bottleneck_5_0/W_proj/Assign"
  input: "^bottleneck_5_0/W_upsample/Assign"
  input: "^bottleneck_5_0/b_conv/Assign"
  input: "^bottleneck_5_1/W_conv/Assign"
  input: "^bottleneck_5_1/W_exp/Assign"
  input: "^bottleneck_5_1/W_proj/Assign"
  input: "^bottleneck_5_1/b_conv/Assign"
  input: "^fullconv/biases/Assign"
  input: "^fullconv/weights/Assign"
  input: "^inital/W/Assign"
  input: "^inital/alpha/Assign"
  input: "^inital/b/Assign"
}
node {
  name: "init_1"
  op: "NoOp"
}
versions {
  producer: 27
}
